node {
  name: "global_step/Initializer/zeros"
  op: "Const"
  attr {
    key: "_class"
    value {
      list {
        s: "loc:@global_step"
      }
    }
  }
  attr {
    key: "_output_shapes"
    value {
      list {
        shape {
        }
      }
    }
  }
  attr {
    key: "dtype"
    value {
      type: DT_INT64
    }
  }
  attr {
    key: "value"
    value {
      tensor {
        dtype: DT_INT64
        tensor_shape {
        }
        int64_val: 0
      }
    }
  }
}
node {
  name: "global_step"
  op: "VariableV2"
  attr {
    key: "_class"
    value {
      list {
        s: "loc:@global_step"
      }
    }
  }
  attr {
    key: "_output_shapes"
    value {
      list {
        shape {
        }
      }
    }
  }
  attr {
    key: "container"
    value {
      s: ""
    }
  }
  attr {
    key: "dtype"
    value {
      type: DT_INT64
    }
  }
  attr {
    key: "shape"
    value {
      shape {
      }
    }
  }
  attr {
    key: "shared_name"
    value {
      s: ""
    }
  }
}
node {
  name: "global_step/Assign"
  op: "Assign"
  input: "global_step"
  input: "global_step/Initializer/zeros"
  attr {
    key: "T"
    value {
      type: DT_INT64
    }
  }
  attr {
    key: "_class"
    value {
      list {
        s: "loc:@global_step"
      }
    }
  }
  attr {
    key: "_output_shapes"
    value {
      list {
        shape {
        }
      }
    }
  }
  attr {
    key: "use_locking"
    value {
      b: true
    }
  }
  attr {
    key: "validate_shape"
    value {
      b: true
    }
  }
}
node {
  name: "global_step/read"
  op: "Identity"
  input: "global_step"
  attr {
    key: "T"
    value {
      type: DT_INT64
    }
  }
  attr {
    key: "_class"
    value {
      list {
        s: "loc:@global_step"
      }
    }
  }
  attr {
    key: "_output_shapes"
    value {
      list {
        shape {
        }
      }
    }
  }
}
node {
  name: "global_step/IsVariableInitialized"
  op: "IsVariableInitialized"
  input: "global_step"
  attr {
    key: "_class"
    value {
      list {
        s: "loc:@global_step"
      }
    }
  }
  attr {
    key: "_output_shapes"
    value {
      list {
        shape {
        }
      }
    }
  }
  attr {
    key: "dtype"
    value {
      type: DT_INT64
    }
  }
}
node {
  name: "global_step/cond/Switch"
  op: "Switch"
  input: "global_step/IsVariableInitialized"
  input: "global_step/IsVariableInitialized"
  attr {
    key: "T"
    value {
      type: DT_BOOL
    }
  }
  attr {
    key: "_output_shapes"
    value {
      list {
        shape {
        }
        shape {
        }
      }
    }
  }
}
node {
  name: "global_step/cond/switch_t"
  op: "Identity"
  input: "global_step/cond/Switch:1"
  attr {
    key: "T"
    value {
      type: DT_BOOL
    }
  }
  attr {
    key: "_output_shapes"
    value {
      list {
        shape {
        }
      }
    }
  }
}
node {
  name: "global_step/cond/switch_f"
  op: "Identity"
  input: "global_step/cond/Switch"
  attr {
    key: "T"
    value {
      type: DT_BOOL
    }
  }
  attr {
    key: "_output_shapes"
    value {
      list {
        shape {
        }
      }
    }
  }
}
node {
  name: "global_step/cond/pred_id"
  op: "Identity"
  input: "global_step/IsVariableInitialized"
  attr {
    key: "T"
    value {
      type: DT_BOOL
    }
  }
  attr {
    key: "_output_shapes"
    value {
      list {
        shape {
        }
      }
    }
  }
}
node {
  name: "global_step/cond/read"
  op: "Identity"
  input: "global_step/cond/read/Switch:1"
  attr {
    key: "T"
    value {
      type: DT_INT64
    }
  }
  attr {
    key: "_output_shapes"
    value {
      list {
        shape {
        }
      }
    }
  }
}
node {
  name: "global_step/cond/read/Switch"
  op: "RefSwitch"
  input: "global_step"
  input: "global_step/cond/pred_id"
  attr {
    key: "T"
    value {
      type: DT_INT64
    }
  }
  attr {
    key: "_class"
    value {
      list {
        s: "loc:@global_step"
      }
    }
  }
  attr {
    key: "_output_shapes"
    value {
      list {
        shape {
        }
        shape {
        }
      }
    }
  }
}
node {
  name: "global_step/cond/Switch_1"
  op: "Switch"
  input: "global_step/Initializer/zeros"
  input: "global_step/cond/pred_id"
  attr {
    key: "T"
    value {
      type: DT_INT64
    }
  }
  attr {
    key: "_class"
    value {
      list {
        s: "loc:@global_step"
      }
    }
  }
  attr {
    key: "_output_shapes"
    value {
      list {
        shape {
        }
        shape {
        }
      }
    }
  }
}
node {
  name: "global_step/cond/Merge"
  op: "Merge"
  input: "global_step/cond/Switch_1"
  input: "global_step/cond/read"
  attr {
    key: "N"
    value {
      i: 2
    }
  }
  attr {
    key: "T"
    value {
      type: DT_INT64
    }
  }
  attr {
    key: "_output_shapes"
    value {
      list {
        shape {
        }
        shape {
        }
      }
    }
  }
}
node {
  name: "global_step/add/y"
  op: "Const"
  attr {
    key: "_output_shapes"
    value {
      list {
        shape {
        }
      }
    }
  }
  attr {
    key: "dtype"
    value {
      type: DT_INT64
    }
  }
  attr {
    key: "value"
    value {
      tensor {
        dtype: DT_INT64
        tensor_shape {
        }
        int64_val: 0
      }
    }
  }
}
node {
  name: "global_step/add"
  op: "Add"
  input: "global_step/cond/Merge"
  input: "global_step/add/y"
  attr {
    key: "T"
    value {
      type: DT_INT64
    }
  }
  attr {
    key: "_output_shapes"
    value {
      list {
        shape {
        }
      }
    }
  }
}
node {
  name: "tensors/component_0"
  op: "Const"
  device: "/device:CPU:0"
  attr {
    key: "_output_shapes"
    value {
      list {
        shape {
          dim {
            size: 625
          }
        }
      }
    }
  }
  attr {
    key: "dtype"
    value {
      type: DT_DOUBLE
    }
  }
  attr {
    key: "value"
    value {
      tensor {
        dtype: DT_DOUBLE
        tensor_shape {
          dim {
            size: 625
          }
        }
        tensor_content: "…"
      }
    }
  }
}
node {
  name: "tensors/component_1"
  op: "Const"
  device: "/device:CPU:0"
  attr {
    key: "_output_shapes"
    value {
      list {
        shape {
          dim {
            size: 625
          }
        }
      }
    }
  }
  attr {
    key: "dtype"
    value {
      type: DT_STRING
    }
  }
  attr {
    key: "value"
    value {
      tensor {
        dtype: DT_STRING
        tensor_shape {
          dim {
            size: 625
          }
        }
        string_val: "Allen, Mr. William Henry"
        string_val: "Jansson, Mr. Carl Olof"
        string_val: "Lurette, Miss. Elise"
        string_val: "Sutton, Mr. Frederick"
        string_val: "Danbom, Mr. Ernst Gilbert"
        string_val: "Skoog, Master. Harald"
        string_val: "Kilgannon, Mr. Thomas J"
        string_val: "Hood, Mr. Ambrose Jr"
        string_val: "Hewlett, Mrs. (Mary D Kingcome) "
        string_val: "Frauenthal, Mrs. Henry William (Clara Heinsheimer)"
        string_val: "Moran, Mr. Daniel J"
        string_val: "Norman, Mr. Robert Douglas"
        string_val: "Ilett, Miss. Bertha"
        string_val: "Ohman, Miss. Velin"
        string_val: "Saad, Mr. Khalil"
        string_val: "Coleff, Mr. Peju"
        string_val: "Harris, Mr. George"
        string_val: "Asim, Mr. Adola"
        string_val: "Ali, Mr. William"
        string_val: "Chambers, Mrs. Norman Campbell (Bertha Griggs)"
        string_val: "Taussig, Miss. Ruth"
        string_val: "West, Miss. Constance Mirium"
        string_val: "Harper, Mr. Henry Sleeper"
        string_val: "Turcin, Mr. Stjepan"
        string_val: "Adahl, Mr. Mauritz Nils Martin"
        string_val: "Panula, Mr. Ernesti Arvid"
        string_val: "Goncalves, Mr. Manuel Estanslas"
        string_val: "Christmann, Mr. Emil"
        string_val: "Clarke, Mrs. Charles V (Ada Maria Winfield)"
        string_val: "Stoytcheff, Mr. Ilia"
        string_val: "Silvey, Mr. William Baird"
        string_val: "Rice, Master. Arthur"
        string_val: "Barbara, Miss. Saiide"
        string_val: "Lefebre, Miss. Ida"
        string_val: "West, Mr. Edwy Arthur"
        string_val: "Salkjelsvik, Miss. Anna Kristine"
        string_val: "Simonius-Blumer, Col. Oberst Alfons"
        string_val: "Endres, Miss. Caroline Louise"
        string_val: "Futrelle, Mr. Jacques Heath"
        string_val: "Myhrman, Mr. Pehr Fabian Oliver Malkolm"
        string_val: "Kelly, Miss. Mary"
        string_val: "Sutehall, Mr. Henry Jr"
        string_val: "Stanley, Miss. Amy Zillah Elsie"
        string_val: "Mamee, Mr. Hanna"
        string_val: "Yasbeck, Mrs. Antoni (Selini Alexander)"
        string_val: "Lindqvist, Mr. Eino William"
        string_val: "Taylor, Mr. Elmer Zebley"
        string_val: "Lefebre, Miss. Mathilde"
        string_val: "Thayer, Mrs. John Borland (Marian Longstreth Morris)"
        string_val: "Beesley, Mr. Lawrence"
        string_val: "Lesurer, Mr. Gustave J"
        string_val: "Maisner, Mr. Simon"
        string_val: "Mellinger, Miss. Madeleine Violet"
        string_val: "Sage, Miss. Constance Gladys"
        string_val: "Nasser, Mrs. Nicholas (Adele Achem)"
        string_val: "Cairns, Mr. Alexander"
        string_val: "Smith, Mr. James Clinch"
        string_val: "Zabour, Miss. Thamine"
        string_val: "Vovk, Mr. Janko"
        string_val: "Bradley, Mr. George (\"George Arthur Brayton\")"
        string_val: "Renouf, Mrs. Peter Henry (Lillian Jefferys)"
        string_val: "van Billiard, Mr. Austin Blyler"
        string_val: "Mack, Mrs. (Mary)"
        string_val: "Nicola-Yarred, Miss. Jamila"
        string_val: "Odahl, Mr. Nils Martin"
        string_val: "Bengtsson, Mr. John Viktor"
        string_val: "Newsom, Miss. Helen Monypeny"
        string_val: "Ridsdale, Miss. Lucy"
        string_val: "Gee, Mr. Arthur H"
        string_val: "Silverthorne, Mr. Spencer Victor"
        string_val: "Brocklebank, Mr. William Alfred"
        string_val: "Murdlin, Mr. Joseph"
        string_val: "Farthing, Mr. John"
        string_val: "Kirkland, Rev. Charles Leonard"
        string_val: "Lahoud, Mr. Sarkis"
        string_val: "Mellors, Mr. William John"
        string_val: "Blank, Mr. Henry"
        string_val: "Futrelle, Mrs. Jacques Heath (Lily May Peel)"
        string_val: "Touma, Mrs. Darwis (Hanne Youssef Razi)"
        string_val: "Kelly, Mrs. Florence \"Fannie\""
        string_val: "Troutt, Miss. Edwina Celia \"Winnie\""
        string_val: "Moen, Mr. Sigurd Hansen"
        string_val: "Gallagher, Mr. Martin"
        string_val: "Peters, Miss. Katie"
        string_val: "Lam, Mr. Ali"
        string_val: "Bostandyeff, Mr. Guentcho"
        string_val: "Weisz, Mrs. Leopold (Mathilde Francoise Pede)"
        string_val: "de Pelsmaeker, Mr. Alfons"
        string_val: "Laitinen, Miss. Kristina Sofia"
        string_val: "Backstrom, Mrs. Karl Alfred (Maria Mathilda Gustafsson)"
        string_val: "Scanlan, Mr. James"
        string_val: "Ahlin, Mrs. Johan (Johanna Persdotter Larsson)"
        string_val: "Chambers, Mr. Norman Campbell"
        string_val: "Crosby, Miss. Harriet R"
        string_val: "Hakkarainen, Mrs. Pekka Pietari (Elin Matilda Dolck)"
        string_val: "Olsson, Mr. Nils Johan Goransson"
        string_val: "O\'Brien, Mr. Timothy"
        string_val: "Nicholls, Mr. Joseph Charles"
        string_val: "Jonsson, Mr. Carl"
        string_val: "Lundahl, Mr. Johan Svensson"
        string_val: "Ostby, Mr. Engelhart Cornelius"
        string_val: "Nicola-Yarred, Master. Elias"
        string_val: "van Melkebeke, Mr. Philemon"
        string_val: "Daniel, Mr. Robert Williams"
        string_val: "Sivola, Mr. Antti Wilhelm"
        string_val: "Jensen, Mr. Svend Lauritz"
        string_val: "Dantcheff, Mr. Ristiu"
        string_val: "Duff Gordon, Lady. (Lucille Christiana Sutherland) (\"Mrs Morgan\")"
        string_val: "Hippach, Mrs. Louis Albert (Ida Sophia Fischer)"
        string_val: "Sobey, Mr. Samuel James Hayden"
        string_val: "Gustafsson, Mr. Karl Gideon"
        string_val: "Guggenheim, Mr. Benjamin"
        string_val: "O\'Dwyer, Miss. Ellen \"Nellie\""
        string_val: "Spedden, Mrs. Frederic Oakley (Margaretta Corning Stone)"
        string_val: "Daly, Mr. Eugene Patrick"
        string_val: "Asplund, Mrs. Carl Oscar (Selma Augusta Emilia Johansson)"
        string_val: "Renouf, Mr. Peter Henry"
        string_val: "Greenberg, Mr. Samuel"
        string_val: "Hirvonen, Miss. Hildur E"
        string_val: "Serepeca, Miss. Augusta"
        string_val: "Vestrom, Miss. Hulda Amanda Adolfina"
        string_val: "Cleaver, Miss. Alice"
        string_val: "Woolner, Mr. Hugh"
        string_val: "Hold, Mr. Stephen"
        string_val: "Rekic, Mr. Tido"
        string_val: "Levy, Mr. Rene Jacques"
        string_val: "Heikkinen, Miss. Laina"
        string_val: "Boulos, Mrs. Joseph (Sultana)"
        string_val: "Niskanen, Mr. Juha"
        string_val: "Keane, Mr. Andrew \"Andy\""
        string_val: "Barbara, Mrs. (Catherine David)"
        string_val: "Kink-Heilmann, Miss. Luise Gretchen"
        string_val: "Dooley, Mr. Patrick"
        string_val: "Maioni, Miss. Roberta"
        string_val: "Andersson, Miss. Ingeborg Constanzia"
        string_val: "Webber, Mr. James"
        string_val: "Fleming, Miss. Margaret"
        string_val: "Hegarty, Miss. Hanora \"Nora\""
        string_val: "Cook, Mr. Jacob"
        string_val: "Yousif, Mr. Wazli"
        string_val: "Jarvis, Mr. John Denzil"
        string_val: "Harris, Mrs. Henry Birkhardt (Irene Wallach)"
        string_val: "Fry, Mr. Richard"
        string_val: "Caldwell, Master. Alden Gates"
        string_val: "O\'Connor, Mr. Maurice"
        string_val: "Duff Gordon, Sir. Cosmo Edmund (\"Mr Morgan\")"
        string_val: "Sjostedt, Mr. Ernst Adolf"
        string_val: "West, Mrs. Edwy Arthur (Ada Mary Worth)"
        string_val: "Taussig, Mrs. Emil (Tillie Mandelbaum)"
        string_val: "Connaghton, Mr. Michael"
        string_val: "Sirota, Mr. Maurice"
        string_val: "Kent, Mr. Edward Austin"
        string_val: "Pears, Mrs. Thomas (Edith Wearne)"
        string_val: "Sharp, Mr. Percival James R"
        string_val: "Bishop, Mrs. Dickinson H (Helen Walton)"
        string_val: "Rush, Mr. Alfred George John"
        string_val: "Peuchen, Major. Arthur Godfrey"
        string_val: "McCormack, Mr. Thomas Joseph"
        string_val: "Spencer, Mrs. William Augustus (Marie Eugenie)"
        string_val: "Wiklund, Mr. Jakob Alfred"
        string_val: "Celotti, Mr. Francesco"
        string_val: "O\'Connell, Mr. Patrick D"
        string_val: "Mayne, Mlle. Berthe Antonine (\"Mrs de Villiers\")"
        string_val: "Mernagh, Mr. Robert"
        string_val: "Vander Planke, Mr. Leo Edmondus"
        string_val: "Laroche, Mr. Joseph Philippe Lemercier"
        string_val: "Hedman, Mr. Oskar Arvid"
        string_val: "Romaine, Mr. Charles Hallace (\"Mr C Rolmane\")"
        string_val: "Skoog, Mrs. William (Anna Bernhardina Karlsson)"
        string_val: "Karun, Miss. Manca"
        string_val: "Moussa, Mrs. (Mantoura Boulos)"
        string_val: "Herman, Miss. Alice"
        string_val: "Backstrom, Mr. Karl Alfred"
        string_val: "Hodges, Mr. Henry Price"
        string_val: "Morrow, Mr. Thomas Rowan"
        string_val: "Bjornstrom-Steffansson, Mr. Mauritz Hakan"
        string_val: "Goldsmith, Mr. Frank John"
        string_val: "Lovell, Mr. John Hall (\"Henry\")"
        string_val: "Cacic, Miss. Marija"
        string_val: "Caldwell, Mrs. Albert Francis (Sylvia Mae Harbaugh)"
        string_val: "Harper, Rev. John"
        string_val: "Klasen, Mr. Klas Albin"
        string_val: "Brewe, Dr. Arthur Jackson"
        string_val: "Longley, Miss. Gretchen Fiske"
        string_val: "Goodwin, Miss. Lillian Amy"
        string_val: "Minahan, Dr. William Edward"
        string_val: "Kalvik, Mr. Johannes Halvorsen"
        string_val: "Mineff, Mr. Ivan"
        string_val: "Sloper, Mr. William Thompson"
        string_val: "Braund, Mr. Lewis Richard"
        string_val: "Hoyt, Mr. Frederick Maxfield"
        string_val: "Abbott, Mrs. Stanton (Rosa Hunt)"
        string_val: "Stead, Mr. William Thomas"
        string_val: "Johannesen-Bratthammer, Mr. Bernt"
        string_val: "Nasser, Mr. Nicholas"
        string_val: "Robbins, Mr. Victor"
        string_val: "Larsson, Mr. Bengt Edvin"
        string_val: "Givard, Mr. Hans Kristensen"
        string_val: "Youseff, Mr. Gerious"
        string_val: "Naidenoff, Mr. Penko"
        string_val: "Sedgwick, Mr. Charles Frederick Waddington"
        string_val: "McMahon, Mr. Martin"
        string_val: "Sundman, Mr. Johan Julian"
        string_val: "Lobb, Mr. William Arthur"
        string_val: "Cunningham, Mr. Alfred Fleming"
        string_val: "Leonard, Mr. Lionel"
        string_val: "Bracken, Mr. James H"
        string_val: "Walker, Mr. William Anderson"
        string_val: "Swift, Mrs. Frederick Joel (Margaret Welles Barron)"
        string_val: "Olsen, Mr. Ole Martin"
        string_val: "Otter, Mr. Richard"
        string_val: "Lang, Mr. Fang"
        string_val: "Van der hoef, Mr. Wyckoff"
        string_val: "Brown, Miss. Amelia \"Mildred\""
        string_val: "Petroff, Mr. Pastcho (\"Pentcho\")"
        string_val: "Hoyt, Mrs. Frederick Maxfield (Jane Anne Forby)"
        string_val: "Hansen, Mr. Henry Damsgaard"
        string_val: "Gheorgheff, Mr. Stanio"
        string_val: "Young, Miss. Marie Grice"
        string_val: "Davies, Master. John Morgan Jr"
        string_val: "Allison, Master. Hudson Trevor"
        string_val: "Duane, Mr. Frank"
        string_val: "Beckwith, Mr. Richard Leonard"
        string_val: "Andrew, Mr. Edgardo Samuel"
        string_val: "Cameron, Miss. Clear Annie"
        string_val: "Drazenoic, Mr. Jozef"
        string_val: "Doling, Mrs. John T (Ada Julia Bone)"
        string_val: "Davison, Mrs. Thomas Henry (Mary E Finck)"
        string_val: "Baumann, Mr. John D"
        string_val: "Calic, Mr. Jovo"
        string_val: "Turja, Miss. Anna Sofia"
        string_val: "Wilhelms, Mr. Charles"
        string_val: "Gale, Mr. Shadrach"
        string_val: "Abbing, Mr. Anthony"
        string_val: "Rice, Master. George Hugh"
        string_val: "Sagesser, Mlle. Emma"
        string_val: "Harper, Mrs. Henry Sleeper (Myna Haxtun)"
        string_val: "Pasic, Mr. Jakob"
        string_val: "Harmer, Mr. Abraham (David Lishin)"
        string_val: "Andrews, Mr. Thomas Jr"
        string_val: "Bowen, Mr. David John \"Dai\""
        string_val: "Downton, Mr. William James"
        string_val: "Sjoblom, Miss. Anna Sofia"
        string_val: "Harder, Mr. George Achilles"
        string_val: "Chaffee, Mr. Herbert Fuller"
        string_val: "Boulos, Mr. Hanna"
        string_val: "Goldschmidt, Mr. George B"
        string_val: "Bidois, Miss. Rosalie"
        string_val: "Funk, Miss. Annie Clemmer"
        string_val: "Lehmann, Miss. Bertha"
        string_val: "Arnold-Franchi, Mrs. Josef (Josefine Franchi)"
        string_val: "Cavendish, Mr. Tyrell William"
        string_val: "Allison, Mrs. Hudson J C (Bessie Waldo Daniels)"
        string_val: "Pengelly, Mr. Frederick William"
        string_val: "Caram, Mrs. Joseph (Maria Elias)"
        string_val: "Taylor, Mrs. Elmer Zebley (Juliet Cummins Wright)"
        string_val: "Hagland, Mr. Ingvald Olai Olsen"
        string_val: "Sawyer, Mr. Frederick Charles"
        string_val: "Emir, Mr. Farred Chehab"
        string_val: "Maenpaa, Mr. Matti Alexanteri"
        string_val: "McCarthy, Mr. Timothy J"
        string_val: "Rothes, the Countess. of (Lucy Noel Martha Dyer-Edwards)"
        string_val: "Lemberopolous, Mr. Peter L"
        string_val: "Zimmerman, Mr. Leo"
        string_val: "Pavlovic, Mr. Stefo"
        string_val: "Skoog, Miss. Margit Elizabeth"
        string_val: "Palsson, Miss. Stina Viola"
        string_val: "McCoy, Mr. Bernard"
        string_val: "Carter, Master. William Thornton II"
        string_val: "Andersson, Miss. Erna Alexandra"
        string_val: "Williams, Mr. Charles Duane"
        string_val: "Francatelli, Miss. Laura Mabel"
        string_val: "Collyer, Mrs. Harvey (Charlotte Annie Tate)"
        string_val: "Fox, Mr. Stanley Hubert"
        string_val: "Pernot, Mr. Rene"
        string_val: "Fortune, Mr. Mark"
        string_val: "Jensen, Mr. Hans Peder"
        string_val: "Calderhead, Mr. Edward Pennington"
        string_val: "Denkoff, Mr. Mitto"
        string_val: "Olsen, Mr. Karl Siegwart Andreas"
        string_val: "Jonkoff, Mr. Lalio"
        string_val: "Perkin, Mr. John Henry"
        string_val: "Richards, Mrs. Sidney (Emily Hocking)"
        string_val: "Stahelin-Maeglin, Dr. Max"
        string_val: "Markoff, Mr. Marin"
        string_val: "Saad, Mr. Amin"
        string_val: "Reed, Mr. James George"
        string_val: "Edvardsson, Mr. Gustaf Hjalmar"
        string_val: "Parr, Mr. William Henry Marsh"
        string_val: "Berriman, Mr. William John"
        string_val: "Ibrahim Shawah, Mr. Yousseff"
        string_val: "O\'Brien, Mr. Thomas"
        string_val: "Rice, Mrs. William (Margaret Norton)"
        string_val: "Ling, Mr. Lee"
        string_val: "Anderson, Mr. Harry"
        string_val: "Berglund, Mr. Karl Ivar Sven"
        string_val: "Johansson, Mr. Gustaf Joel"
        string_val: "Cardeza, Mr. Thomas Drake Martinez"
        string_val: "Homer, Mr. Harry (\"Mr E Haven\")"
        string_val: "Phillips, Miss. Kate Florence (\"Mrs Kate Louise Phillips Marshall\")"
        string_val: "Larsson, Mr. August Viktor"
        string_val: "Panula, Master. Eino Viljami"
        string_val: "Stephenson, Mrs. Walter Bertram (Martha Eustis)"
        string_val: "Lester, Mr. James"
        string_val: "Panula, Master. Urho Abraham"
        string_val: "Hampe, Mr. Leon"
        string_val: "Laroche, Miss. Simonne Marie Anne Andree"
        string_val: "Jussila, Miss. Katriina"
        string_val: "Doling, Miss. Elsie"
        string_val: "Navratil, Master. Michel M"
        string_val: "Palsson, Miss. Torborg Danira"
        string_val: "Trout, Mrs. William H (Jessie L)"
        string_val: "Sandstrom, Miss. Marguerite Rut"
        string_val: "Carter, Mrs. William Ernest (Lucile Polk)"
        string_val: "Moutal, Mr. Rahamin Haim"
        string_val: "Silven, Miss. Lyyli Karoliina"
        string_val: "Moor, Mrs. (Beila)"
        string_val: "Long, Mr. Milton Clyde"
        string_val: "Richard, Mr. Emile"
        string_val: "White, Mr. Richard Frasar"
        string_val: "Plotcharsky, Mr. Vasil"
        string_val: "Andersson, Miss. Sigrid Elisabeth"
        string_val: "Slayter, Miss. Hilda Mary"
        string_val: "Harrison, Mr. William"
        string_val: "Barah, Mr. Hanna Assi"
        string_val: "Chibnall, Mrs. (Edith Martha Bowerman)"
        string_val: "Nye, Mrs. (Elizabeth Ramell)"
        string_val: "Andrews, Miss. Kornelia Theodosia"
        string_val: "Petroff, Mr. Nedelio"
        string_val: "Hassan, Mr. Houssein G N"
        string_val: "McDermott, Miss. Brigdet Delia"
        string_val: "Taussig, Mr. Emil"
        string_val: "Honkanen, Miss. Eliina"
        string_val: "Warren, Mrs. Frank Manley (Anna Sophia Atkinson)"
        string_val: "Parrish, Mrs. (Lutie Davis)"
        string_val: "Thorneycroft, Mr. Percival"
        string_val: "Jalsevac, Mr. Ivan"
        string_val: "Aks, Mrs. Sam (Leah Rosen)"
        string_val: "Landergren, Miss. Aurora Adelia"
        string_val: "Wick, Miss. Mary Natalie"
        string_val: "Theobald, Mr. Thomas Leonard"
        string_val: "Fischer, Mr. Eberhard Thelander"
        string_val: "Foo, Mr. Choong"
        string_val: "Gilnagh, Miss. Katherine \"Katie\""
        string_val: "Lewy, Mr. Ervin G"
        string_val: "Smart, Mr. John Montgomery"
        string_val: "Colley, Mr. Edward Pomeroy"
        string_val: "Carter, Rev. Ernest Courtenay"
        string_val: "Bourke, Mr. John"
        string_val: "Radeff, Mr. Alexander"
        string_val: "Abelson, Mrs. Samuel (Hannah Wizosky)"
        string_val: "Harris, Mr. Henry Birkhardt"
        string_val: "Rood, Mr. Hugh Roscoe"
        string_val: "Albimona, Mr. Nassef Cassem"
        string_val: "O\'Leary, Miss. Hanora \"Norah\""
        string_val: "Hart, Miss. Eva Miriam"
        string_val: "Johnson, Mr. Alfred"
        string_val: "Coutts, Master. Eden Leslie \"Neville\""
        string_val: "Boulos, Miss. Nourelain"
        string_val: "del Carlo, Mr. Sebastiano"
        string_val: "Waelens, Mr. Achille"
        string_val: "Coleff, Mr. Satio"
        string_val: "Bing, Mr. Lee"
        string_val: "Coleridge, Mr. Reginald Charles"
        string_val: "Emanuel, Miss. Virginia Ethel"
        string_val: "Ivanoff, Mr. Kanio"
        string_val: "McEvoy, Mr. Michael"
        string_val: "Andersson, Mr. Anders Johan"
        string_val: "Nysten, Miss. Anna Sofia"
        string_val: "Todoroff, Mr. Lalio"
        string_val: "Mallet, Master. Andre"
        string_val: "Meanwell, Miss. (Marion Ogden)"
        string_val: "Panula, Mrs. Juha (Maria Emilia Ojala)"
        string_val: "Collyer, Miss. Marjorie \"Lottie\""
        string_val: "Vander Cruyssen, Mr. Victor"
        string_val: "Madsen, Mr. Fridtjof Arne"
        string_val: "Carlsson, Mr. Frans Olof"
        string_val: "Kraeff, Mr. Theodor"
        string_val: "Williams, Mr. Charles Eugene"
        string_val: "Jacobsohn, Mr. Sidney Samuel"
        string_val: "Stewart, Mr. Albert A"
        string_val: "Canavan, Miss. Mary"
        string_val: "Robert, Mrs. Edward Scott (Elisabeth Walton McMillan)"
        string_val: "Arnold-Franchi, Mr. Josef"
        string_val: "Rosblom, Mrs. Viktor (Helena Wilhelmina)"
        string_val: "Uruchurtu, Don. Manuel E"
        string_val: "Lulic, Mr. Nikola"
        string_val: "Elias, Mr. Tannous"
        string_val: "Johnson, Mrs. Oscar W (Elisabeth Vilhelmina Berg)"
        string_val: "Newell, Miss. Marjorie"
        string_val: "Appleton, Mrs. Edward Dale (Charlotte Lamson)"
        string_val: "Chapman, Mr. John Henry"
        string_val: "Allison, Miss. Helen Loraine"
        string_val: "Williams, Mr. Leslie"
        string_val: "Olsen, Mr. Henry Margido"
        string_val: "Roebling, Mr. Washington Augustus II"
        string_val: "Morley, Mr. Henry Samuel (\"Mr Henry Marshall\")"
        string_val: "Baxter, Mrs. James (Helene DeLaudeniere Chaput)"
        string_val: "Hansen, Mr. Claus Peter"
        string_val: "Turpin, Mrs. William John Robert (Dorothy Ann Wonnacott)"
        string_val: "Jenkin, Mr. Stephen Curnow"
        string_val: "Van Impe, Mr. Jean Baptiste"
        string_val: "Dahl, Mr. Karl Edwart"
        string_val: "Hocking, Mr. Richard George"
        string_val: "Svensson, Mr. Johan"
        string_val: "Widegren, Mr. Carl/Charles Peter"
        string_val: "Andersson, Master. Sigvard Harald Elias"
        string_val: "Becker, Miss. Marion Louise"
        string_val: "Carlsson, Mr. August Sigfrid"
        string_val: "Brown, Mrs. James Joseph (Margaret Tobin)"
        string_val: "Carter, Mr. William Ernest"
        string_val: "Hays, Miss. Margaret Bechstein"
        string_val: "Garside, Miss. Ethel"
        string_val: "Nankoff, Mr. Minko"
        string_val: "Ford, Mrs. Edward (Margaret Ann Watson)"
        string_val: "Smith, Mr. Richard William"
        string_val: "Kantor, Mr. Sinai"
        string_val: "Petranec, Miss. Matilda"
        string_val: "Rommetvedt, Mr. Knud Paust"
        string_val: "Laleff, Mr. Kristo"
        string_val: "Allum, Mr. Owen George"
        string_val: "Heininen, Miss. Wendla Maria"
        string_val: "Van Impe, Mrs. Jean Baptiste (Rosalie Paula Govaert)"
        string_val: "Torber, Mr. Ernst William"
        string_val: "Haas, Miss. Aloisia"
        string_val: "Compton, Miss. Sara Rebecca"
        string_val: "Wick, Mrs. George Dennick (Mary Hitchcock)"
        string_val: "Panula, Mr. Jaako Arnold"
        string_val: "Kassem, Mr. Fared"
        string_val: "Hosono, Mr. Masabumi"
        string_val: "Smiljanic, Mr. Mile"
        string_val: "Stankovic, Mr. Ivan"
        string_val: "Mitchell, Mr. Henry Michael"
        string_val: "Aubart, Mme. Leontine Pauline"
        string_val: "Douglas, Mr. Walter Donald"
        string_val: "Bateman, Rev. Robert James"
        string_val: "Eklund, Mr. Hans Linus"
        string_val: "Markun, Mr. Johann"
        string_val: "Meyer, Mrs. Edgar Joseph (Leila Saks)"
        string_val: "Johnston, Mr. Andrew G"
        string_val: "Porter, Mr. Walter Chamberlain"
        string_val: "Ford, Miss. Robina Maggie \"Ruby\""
        string_val: "Rugg, Miss. Emily"
        string_val: "Hickman, Mr. Lewis"
        string_val: "Wright, Mr. George"
        string_val: "Pettersson, Miss. Ellen Natalia"
        string_val: "Balkic, Mr. Cerin"
        string_val: "Daly, Mr. Peter Denis "
        string_val: "Elias, Mr. Dibo"
        string_val: "Jacobsohn, Mrs. Sidney Samuel (Amy Frances Christy)"
        string_val: "Sinkkonen, Miss. Anna"
        string_val: "Rice, Master. Eugene"
        string_val: "Andreasson, Mr. Paul Edvin"
        string_val: "Kink, Mr. Vincenz"
        string_val: "Oreskovic, Miss. Marija"
        string_val: "O\'Brien, Mrs. Thomas (Johanna \"Hannah\" Godfrey)"
        string_val: "Frolicher-Stehli, Mr. Maxmillian"
        string_val: "Butler, Mr. Reginald Fenton"
        string_val: "Jensen, Mr. Niels Peder"
        string_val: "Mangan, Miss. Mary"
        string_val: "Dennis, Mr. Samuel"
        string_val: "Samaan, Mr. Youssef"
        string_val: "Murphy, Miss. Katherine \"Kate\""
        string_val: "Moraweck, Dr. Ernest"
        string_val: "Garfirth, Mr. John"
        string_val: "Collyer, Mr. Harvey"
        string_val: "Andersson, Miss. Ellis Anna Maria"
        string_val: "Moubarek, Master. Gerios"
        string_val: "Willey, Mr. Edward"
        string_val: "Carr, Miss. Helen \"Ellen\""
        string_val: "Eustis, Miss. Elizabeth Mussey"
        string_val: "Milling, Mr. Jacob Christian"
        string_val: "Weir, Col. John"
        string_val: "Christy, Miss. Julie Rachel"
        string_val: "Pinsky, Mrs. (Rosa)"
        string_val: "Hart, Mr. Benjamin"
        string_val: "Coxon, Mr. Daniel"
        string_val: "Attalah, Mr. Sleiman"
        string_val: "Natsch, Mr. Charles H"
        string_val: "Marechal, Mr. Pierre"
        string_val: "Skoog, Mr. Wilhelm"
        string_val: "Cribb, Mr. John Hatfield"
        string_val: "Gilinski, Mr. Eliezer"
        string_val: "Bailey, Mr. Percy Andrew"
        string_val: "Quick, Miss. Phyllis May"
        string_val: "Cumings, Mrs. John Bradley (Florence Briggs Thayer)"
        string_val: "Penasco y Castellana, Mr. Victor de Satode"
        string_val: "White, Mr. Percival Wayland"
        string_val: "Goodwin, Mr. Charles Edward"
        string_val: "Nakid, Mr. Sahid"
        string_val: "Fortune, Mr. Charles Alexander"
        string_val: "Harknett, Miss. Alice Phoebe"
        string_val: "Davies, Mr. Charles Henry"
        string_val: "Sdycoff, Mr. Todor"
        string_val: "Frolicher, Miss. Hedwig Margaritha"
        string_val: "Williams, Mr. Howard Hugh \"Harry\""
        string_val: "Chronopoulos, Mr. Apostolos"
        string_val: "Peter, Mrs. Catherine (Catherine Rizk)"
        string_val: "Peter, Miss. Anna"
        string_val: "Rouse, Mr. Richard Henry"
        string_val: "Vanden Steen, Mr. Leo Peter"
        string_val: "Rosblom, Mr. Viktor Richard"
        string_val: "Goodwin, Master. William Frederick"
        string_val: "Bissette, Miss. Amelia"
        string_val: "Dodge, Master. Washington"
        string_val: "Culumovic, Mr. Jeso"
        string_val: "Kiernan, Mr. Philip"
        string_val: "Laroche, Mrs. Joseph (Juliette Marie Louise Lafargue)"
        string_val: "Slocovski, Mr. Selman Francis"
        string_val: "Cohen, Mr. Gurshon \"Gus\""
        string_val: "Olsson, Miss. Elina"
        string_val: "Holverson, Mr. Alexander Oskar"
        string_val: "Gustafsson, Mr. Anders Vilhelm"
        string_val: "Elsbury, Mr. William James"
        string_val: "Horgan, Mr. John"
        string_val: "Bowerman, Miss. Elsie Edith"
        string_val: "Hoyt, Mr. William Fisher"
        string_val: "Harrington, Mr. Charles H"
        string_val: "Collander, Mr. Erik Gustaf"
        string_val: "Nicholson, Mr. Arthur Ernest"
        string_val: "Hickman, Mr. Stanley George"
        string_val: "Vande Walle, Mr. Nestor Cyriel"
        string_val: "Gronnestad, Mr. Daniel Danielsen"
        string_val: "Charters, Mr. David"
        string_val: "Watson, Mr. Ennis Hastings"
        string_val: "Astor, Mrs. John Jacob (Madeleine Talmadge Force)"
        string_val: "Brown, Mr. Thomas William Solomon"
        string_val: "Kallio, Mr. Nikolai Erland"
        string_val: "Dean, Master. Bertram Vere"
        string_val: "Leinonen, Mr. Antti Gustaf"
        string_val: "Goldsmith, Master. Frank John William \"Frankie\""
        string_val: "Lennon, Mr. Denis"
        string_val: "Toomey, Miss. Ellen"
        string_val: "Quick, Mrs. Frederick Charles (Jane Richards)"
        string_val: "Wheadon, Mr. Edward H"
        string_val: "Jussila, Miss. Mari Aina"
        string_val: "Danbom, Mrs. Ernst Gilbert (Anna Sigrid Maria Brogren)"
        string_val: "Keane, Miss. Nora A"
        string_val: "Moor, Master. Meier"
        string_val: "Tikkanen, Mr. Juho"
        string_val: "Skoog, Master. Karl Thorsten"
        string_val: "Becker, Master. Richard F"
        string_val: "Burke, Mr. Jeremiah"
        string_val: "Foreman, Mr. Benjamin Laventall"
        string_val: "Thorne, Mrs. Gertrude Maybelle"
        string_val: "Madigan, Miss. Margaret \"Maggie\""
        string_val: "Healy, Miss. Hanora \"Nora\""
        string_val: "Knight, Mr. Robert J"
        string_val: "Peduzzi, Mr. Joseph"
        string_val: "Keefe, Mr. Arthur"
        string_val: "Campbell, Mr. William"
        string_val: "Mudd, Mr. Thomas Charles"
        string_val: "McGowan, Miss. Anna \"Annie\""
        string_val: "Carrau, Mr. Francisco M"
        string_val: "de Messemaeker, Mrs. Guillaume Joseph (Emma)"
        string_val: "Novel, Mr. Mansouer"
        string_val: "Kenyon, Mrs. Frederick R (Marion)"
        string_val: "Lines, Miss. Mary Conover"
        string_val: "Webber, Miss. Susan"
        string_val: "Gaskell, Mr. Alfred"
        string_val: "Robins, Mrs. Alexander A (Grace Charity Laury)"
        string_val: "Behr, Mr. Karl Howell"
        string_val: "Chip, Mr. Chang"
        string_val: "Vande Velde, Mr. Johannes Joseph"
        string_val: "Fynney, Mr. Joseph J"
        string_val: "Tomlin, Mr. Ernest Portage"
        string_val: "Faunthorpe, Mrs. Lizzie (Elizabeth Anne Wilkinson)"
        string_val: "Bryhl, Mr. Kurt Arnold Gottfrid"
        string_val: "Moran, Mr. James"
        string_val: "Rice, Master. Eric"
        string_val: "Sivic, Mr. Husein"
        string_val: "Yrois, Miss. Henriette (\"Mrs Harbeck\")"
        string_val: "Henry, Miss. Delia"
        string_val: "McGovern, Miss. Mary"
        string_val: "Baclini, Mrs. Solomon (Latifa Qurban)"
        string_val: "Graham, Mrs. William Thompson (Edith Junkins)"
        string_val: "Dowdell, Miss. Elizabeth"
        string_val: "Baxter, Mr. Quigg Edmond"
        string_val: "Cacic, Mr. Luka"
        string_val: "Andersson, Miss. Ebba Iris Alfrida"
        string_val: "Madill, Miss. Georgette Alexandra"
        string_val: "Leitch, Miss. Jessie Wills"
        string_val: "Johnston, Miss. Catherine Helen \"Carrie\""
        string_val: "Kimball, Mr. Edwin Nelson Jr"
        string_val: "Van Impe, Miss. Catharina"
        string_val: "Ford, Miss. Doolina Margaret \"Daisy\""
        string_val: "Giles, Mr. Frederick Edward"
        string_val: "Risien, Mr. Samuel Beard"
        string_val: "Ringhini, Mr. Sante"
        string_val: "Ryan, Mr. Patrick"
        string_val: "Andersson, Mr. August Edvard (\"Wennerstrom\")"
        string_val: "Karaic, Mr. Milan"
        string_val: "Johnson, Miss. Eleanor Ileen"
        string_val: "Silvey, Mrs. William Baird (Alice Munger)"
        string_val: "Karlsson, Mr. Nils August"
        string_val: "Persson, Mr. Ernst Ulrik"
        string_val: "Baclini, Miss. Eugenie"
        string_val: "Somerton, Mr. Francis William"
        string_val: "Parkes, Mr. Francis \"Frank\""
        string_val: "Sunderland, Mr. Victor Francis"
        string_val: "Millet, Mr. Francis Davis"
        string_val: "Holm, Mr. John Fredrik Alexander"
        string_val: "Graham, Mr. George Edward"
        string_val: "O\'Sullivan, Miss. Bridget Mary"
        string_val: "Johansson, Mr. Karl Johan"
        string_val: "Williams-Lambert, Mr. Fletcher Fellows"
        string_val: "Glynn, Miss. Mary Agatha"
        string_val: "Ryerson, Miss. Susan Parker \"Suzette\""
        string_val: "Sage, Miss. Dorothy Edith \"Dolly\""
        string_val: "Navratil, Master. Edmond Roger"
        string_val: "Thomas, Master. Assad Alexander"
        string_val: "Bonnell, Miss. Elizabeth"
        string_val: "Lindahl, Miss. Agda Thorilda Viktoria"
        string_val: "Moran, Miss. Bertha"
        string_val: "Carter, Mrs. Ernest Courtenay (Lilian Hughes)"
        string_val: "Hunt, Mr. George Henry"
        string_val: "Morley, Mr. William"
        string_val: "Blackwell, Mr. Stephen Weart"
        string_val: "Dorking, Mr. Edward Arthur"
        string_val: "Beane, Mr. Edward"
        string_val: "Sage, Master. Thomas Henry"
        string_val: "Newell, Mr. Arthur Webster"
        string_val: "Wiseman, Mr. Phillippe"
        string_val: "Bazzani, Miss. Albina"
        string_val: "Hickman, Mr. Leonard Mark"
      }
    }
  }
}
node {
  name: "tensors/component_2"
  op: "Const"
  device: "/device:CPU:0"
  attr {
    key: "_output_shapes"
    value {
      list {
        shape {
          dim {
            size: 625
          }
        }
      }
    }
  }
  attr {
    key: "dtype"
    value {
      type: DT_INT64
    }
  }
  attr {
    key: "value"
    value {
      tensor {
        dtype: DT_INT64
        tensor_shape {
          dim {
            size: 625
          }
        }
        tensor_content: "…"
      }
    }
  }
}
node {
  name: "tensors/component_3"
  op: "Const"
  device: "/device:CPU:0"
  attr {
    key: "_output_shapes"
    value {
      list {
        shape {
          dim {
            size: 625
          }
        }
      }
    }
  }
  attr {
    key: "dtype"
    value {
      type: DT_INT64
    }
  }
  attr {
    key: "value"
    value {
      tensor {
        dtype: DT_INT64
        tensor_shape {
          dim {
            size: 625
          }
        }
        tensor_content: "…"
      }
    }
  }
}
node {
  name: "tensors/component_4"
  op: "Const"
  device: "/device:CPU:0"
  attr {
    key: "_output_shapes"
    value {
      list {
        shape {
          dim {
            size: 625
          }
        }
      }
    }
  }
  attr {
    key: "dtype"
    value {
      type: DT_INT64
    }
  }
  attr {
    key: "value"
    value {
      tensor {
        dtype: DT_INT64
        tensor_shape {
          dim {
            size: 625
          }
        }
        tensor_content: "…"
      }
    }
  }
}
node {
  name: "batch_size"
  op: "Const"
  device: "/device:CPU:0"
  attr {
    key: "_output_shapes"
    value {
      list {
        shape {
        }
      }
    }
  }
  attr {
    key: "dtype"
    value {
      type: DT_INT64
    }
  }
  attr {
    key: "value"
    value {
      tensor {
        dtype: DT_INT64
        tensor_shape {
        }
        int64_val: 50
      }
    }
  }
}
node {
  name: "drop_remainder"
  op: "Const"
  device: "/device:CPU:0"
  attr {
    key: "_output_shapes"
    value {
      list {
        shape {
        }
      }
    }
  }
  attr {
    key: "dtype"
    value {
      type: DT_BOOL
    }
  }
  attr {
    key: "value"
    value {
      tensor {
        dtype: DT_BOOL
        tensor_shape {
        }
        bool_val: false
      }
    }
  }
}
node {
  name: "count"
  op: "Const"
  device: "/device:CPU:0"
  attr {
    key: "_output_shapes"
    value {
      list {
        shape {
        }
      }
    }
  }
  attr {
    key: "dtype"
    value {
      type: DT_INT64
    }
  }
  attr {
    key: "value"
    value {
      tensor {
        dtype: DT_INT64
        tensor_shape {
        }
        int64_val: -1
      }
    }
  }
}
node {
  name: "buffer_size"
  op: "Const"
  device: "/device:CPU:0"
  attr {
    key: "_output_shapes"
    value {
      list {
        shape {
        }
      }
    }
  }
  attr {
    key: "dtype"
    value {
      type: DT_INT64
    }
  }
  attr {
    key: "value"
    value {
      tensor {
        dtype: DT_INT64
        tensor_shape {
        }
        int64_val: 10000
      }
    }
  }
}
node {
  name: "seed"
  op: "Const"
  device: "/device:CPU:0"
  attr {
    key: "_output_shapes"
    value {
      list {
        shape {
        }
      }
    }
  }
  attr {
    key: "dtype"
    value {
      type: DT_INT64
    }
  }
  attr {
    key: "value"
    value {
      tensor {
        dtype: DT_INT64
        tensor_shape {
        }
        int64_val: 0
      }
    }
  }
}
node {
  name: "seed2"
  op: "Const"
  device: "/device:CPU:0"
  attr {
    key: "_output_shapes"
    value {
      list {
        shape {
        }
      }
    }
  }
  attr {
    key: "dtype"
    value {
      type: DT_INT64
    }
  }
  attr {
    key: "value"
    value {
      tensor {
        dtype: DT_INT64
        tensor_shape {
        }
        int64_val: 0
      }
    }
  }
}
node {
  name: "OneShotIterator"
  op: "OneShotIterator"
  device: "/device:CPU:0"
  attr {
    key: "_output_shapes"
    value {
      list {
        shape {
        }
      }
    }
  }
  attr {
    key: "container"
    value {
      s: ""
    }
  }
  attr {
    key: "dataset_factory"
    value {
      func {
        name: "_make_dataset_ZroFNzJ0Ito"
      }
    }
  }
  attr {
    key: "output_shapes"
    value {
      list {
        shape {
          dim {
            size: -1
          }
        }
        shape {
          dim {
            size: -1
          }
        }
        shape {
          dim {
            size: -1
          }
        }
        shape {
          dim {
            size: -1
          }
        }
        shape {
          dim {
            size: -1
          }
        }
      }
    }
  }
  attr {
    key: "output_types"
    value {
      list {
        type: DT_DOUBLE
        type: DT_STRING
        type: DT_INT64
        type: DT_INT64
        type: DT_INT64
      }
    }
  }
  attr {
    key: "shared_name"
    value {
      s: ""
    }
  }
}
node {
  name: "IteratorToStringHandle"
  op: "IteratorToStringHandle"
  input: "OneShotIterator"
  device: "/device:CPU:0"
  attr {
    key: "_output_shapes"
    value {
      list {
        shape {
        }
      }
    }
  }
}
node {
  name: "IteratorGetNext"
  op: "IteratorGetNext"
  input: "OneShotIterator"
  device: "/device:CPU:0"
  attr {
    key: "_output_shapes"
    value {
      list {
        shape {
          dim {
            size: -1
          }
        }
        shape {
          dim {
            size: -1
          }
        }
        shape {
          dim {
            size: -1
          }
        }
        shape {
          dim {
            size: -1
          }
        }
        shape {
          dim {
            size: -1
          }
        }
      }
    }
  }
  attr {
    key: "output_shapes"
    value {
      list {
        shape {
          dim {
            size: -1
          }
        }
        shape {
          dim {
            size: -1
          }
        }
        shape {
          dim {
            size: -1
          }
        }
        shape {
          dim {
            size: -1
          }
        }
        shape {
          dim {
            size: -1
          }
        }
      }
    }
  }
  attr {
    key: "output_types"
    value {
      list {
        type: DT_DOUBLE
        type: DT_STRING
        type: DT_INT64
        type: DT_INT64
        type: DT_INT64
      }
    }
  }
}
node {
  name: "linear/linear_model/Pclass/weights/part_0/Initializer/zeros"
  op: "Const"
  attr {
    key: "_class"
    value {
      list {
        s: "loc:@linear/linear_model/Pclass/weights/part_0"
      }
    }
  }
  attr {
    key: "_output_shapes"
    value {
      list {
        shape {
          dim {
            size: 3
          }
          dim {
            size: 1
          }
        }
      }
    }
  }
  attr {
    key: "dtype"
    value {
      type: DT_FLOAT
    }
  }
  attr {
    key: "value"
    value {
      tensor {
        dtype: DT_FLOAT
        tensor_shape {
          dim {
            size: 3
          }
          dim {
            size: 1
          }
        }
        float_val: 0.0
      }
    }
  }
}
node {
  name: "linear/linear_model/Pclass/weights/part_0"
  op: "VarHandleOp"
  attr {
    key: "_class"
    value {
      list {
        s: "loc:@linear/linear_model/Pclass/weights/part_0"
      }
    }
  }
  attr {
    key: "_output_shapes"
    value {
      list {
        shape {
        }
      }
    }
  }
  attr {
    key: "container"
    value {
      s: ""
    }
  }
  attr {
    key: "dtype"
    value {
      type: DT_FLOAT
    }
  }
  attr {
    key: "shape"
    value {
      shape {
        dim {
          size: 3
        }
        dim {
          size: 1
        }
      }
    }
  }
  attr {
    key: "shared_name"
    value {
      s: "linear/linear_model/Pclass/weights/part_0"
    }
  }
}
node {
  name: "linear/linear_model/Pclass/weights/part_0/IsInitialized/VarIsInitializedOp"
  op: "VarIsInitializedOp"
  input: "linear/linear_model/Pclass/weights/part_0"
  attr {
    key: "_output_shapes"
    value {
      list {
        shape {
        }
      }
    }
  }
}
node {
  name: "linear/linear_model/Pclass/weights/part_0/Assign"
  op: "AssignVariableOp"
  input: "linear/linear_model/Pclass/weights/part_0"
  input: "linear/linear_model/Pclass/weights/part_0/Initializer/zeros"
  attr {
    key: "_class"
    value {
      list {
        s: "loc:@linear/linear_model/Pclass/weights/part_0"
      }
    }
  }
  attr {
    key: "dtype"
    value {
      type: DT_FLOAT
    }
  }
}
node {
  name: "linear/linear_model/Pclass/weights/part_0/Read/ReadVariableOp"
  op: "ReadVariableOp"
  input: "linear/linear_model/Pclass/weights/part_0"
  attr {
    key: "_class"
    value {
      list {
        s: "loc:@linear/linear_model/Pclass/weights/part_0"
      }
    }
  }
  attr {
    key: "_output_shapes"
    value {
      list {
        shape {
          dim {
            size: 3
          }
          dim {
            size: 1
          }
        }
      }
    }
  }
  attr {
    key: "dtype"
    value {
      type: DT_FLOAT
    }
  }
}
node {
  name: "linear/linear_model/Sex/weights/part_0/Initializer/zeros"
  op: "Const"
  attr {
    key: "_class"
    value {
      list {
        s: "loc:@linear/linear_model/Sex/weights/part_0"
      }
    }
  }
  attr {
    key: "_output_shapes"
    value {
      list {
        shape {
          dim {
            size: 2
          }
          dim {
            size: 1
          }
        }
      }
    }
  }
  attr {
    key: "dtype"
    value {
      type: DT_FLOAT
    }
  }
  attr {
    key: "value"
    value {
      tensor {
        dtype: DT_FLOAT
        tensor_shape {
          dim {
            size: 2
          }
          dim {
            size: 1
          }
        }
        float_val: 0.0
      }
    }
  }
}
node {
  name: "linear/linear_model/Sex/weights/part_0"
  op: "VarHandleOp"
  attr {
    key: "_class"
    value {
      list {
        s: "loc:@linear/linear_model/Sex/weights/part_0"
      }
    }
  }
  attr {
    key: "_output_shapes"
    value {
      list {
        shape {
        }
      }
    }
  }
  attr {
    key: "container"
    value {
      s: ""
    }
  }
  attr {
    key: "dtype"
    value {
      type: DT_FLOAT
    }
  }
  attr {
    key: "shape"
    value {
      shape {
        dim {
          size: 2
        }
        dim {
          size: 1
        }
      }
    }
  }
  attr {
    key: "shared_name"
    value {
      s: "linear/linear_model/Sex/weights/part_0"
    }
  }
}
node {
  name: "linear/linear_model/Sex/weights/part_0/IsInitialized/VarIsInitializedOp"
  op: "VarIsInitializedOp"
  input: "linear/linear_model/Sex/weights/part_0"
  attr {
    key: "_output_shapes"
    value {
      list {
        shape {
        }
      }
    }
  }
}
node {
  name: "linear/linear_model/Sex/weights/part_0/Assign"
  op: "AssignVariableOp"
  input: "linear/linear_model/Sex/weights/part_0"
  input: "linear/linear_model/Sex/weights/part_0/Initializer/zeros"
  attr {
    key: "_class"
    value {
      list {
        s: "loc:@linear/linear_model/Sex/weights/part_0"
      }
    }
  }
  attr {
    key: "dtype"
    value {
      type: DT_FLOAT
    }
  }
}
node {
  name: "linear/linear_model/Sex/weights/part_0/Read/ReadVariableOp"
  op: "ReadVariableOp"
  input: "linear/linear_model/Sex/weights/part_0"
  attr {
    key: "_class"
    value {
      list {
        s: "loc:@linear/linear_model/Sex/weights/part_0"
      }
    }
  }
  attr {
    key: "_output_shapes"
    value {
      list {
        shape {
          dim {
            size: 2
          }
          dim {
            size: 1
          }
        }
      }
    }
  }
  attr {
    key: "dtype"
    value {
      type: DT_FLOAT
    }
  }
}
node {
  name: "linear/linear_model/bias_weights/part_0/Initializer/zeros"
  op: "Const"
  attr {
    key: "_class"
    value {
      list {
        s: "loc:@linear/linear_model/bias_weights/part_0"
      }
    }
  }
  attr {
    key: "_output_shapes"
    value {
      list {
        shape {
          dim {
            size: 1
          }
        }
      }
    }
  }
  attr {
    key: "dtype"
    value {
      type: DT_FLOAT
    }
  }
  attr {
    key: "value"
    value {
      tensor {
        dtype: DT_FLOAT
        tensor_shape {
          dim {
            size: 1
          }
        }
        float_val: 0.0
      }
    }
  }
}
node {
  name: "linear/linear_model/bias_weights/part_0"
  op: "VarHandleOp"
  attr {
    key: "_class"
    value {
      list {
        s: "loc:@linear/linear_model/bias_weights/part_0"
      }
    }
  }
  attr {
    key: "_output_shapes"
    value {
      list {
        shape {
        }
      }
    }
  }
  attr {
    key: "container"
    value {
      s: ""
    }
  }
  attr {
    key: "dtype"
    value {
      type: DT_FLOAT
    }
  }
  attr {
    key: "shape"
    value {
      shape {
        dim {
          size: 1
        }
      }
    }
  }
  attr {
    key: "shared_name"
    value {
      s: "linear/linear_model/bias_weights/part_0"
    }
  }
}
node {
  name: "linear/linear_model/bias_weights/part_0/IsInitialized/VarIsInitializedOp"
  op: "VarIsInitializedOp"
  input: "linear/linear_model/bias_weights/part_0"
  attr {
    key: "_output_shapes"
    value {
      list {
        shape {
        }
      }
    }
  }
}
node {
  name: "linear/linear_model/bias_weights/part_0/Assign"
  op: "AssignVariableOp"
  input: "linear/linear_model/bias_weights/part_0"
  input: "linear/linear_model/bias_weights/part_0/Initializer/zeros"
  attr {
    key: "_class"
    value {
      list {
        s: "loc:@linear/linear_model/bias_weights/part_0"
      }
    }
  }
  attr {
    key: "dtype"
    value {
      type: DT_FLOAT
    }
  }
}
node {
  name: "linear/linear_model/bias_weights/part_0/Read/ReadVariableOp"
  op: "ReadVariableOp"
  input: "linear/linear_model/bias_weights/part_0"
  attr {
    key: "_class"
    value {
      list {
        s: "loc:@linear/linear_model/bias_weights/part_0"
      }
    }
  }
  attr {
    key: "_output_shapes"
    value {
      list {
        shape {
          dim {
            size: 1
          }
        }
      }
    }
  }
  attr {
    key: "dtype"
    value {
      type: DT_FLOAT
    }
  }
}
node {
  name: "linear/linear_model/linear_model/linear_model/Pclass/ExpandDims/dim"
  op: "Const"
  attr {
    key: "_output_shapes"
    value {
      list {
        shape {
        }
      }
    }
  }
  attr {
    key: "dtype"
    value {
      type: DT_INT32
    }
  }
  attr {
    key: "value"
    value {
      tensor {
        dtype: DT_INT32
        tensor_shape {
        }
        int_val: -1
      }
    }
  }
}
node {
  name: "linear/linear_model/linear_model/linear_model/Pclass/ExpandDims"
  op: "ExpandDims"
  input: "IteratorGetNext:2"
  input: "linear/linear_model/linear_model/linear_model/Pclass/ExpandDims/dim"
  attr {
    key: "T"
    value {
      type: DT_INT64
    }
  }
  attr {
    key: "Tdim"
    value {
      type: DT_INT32
    }
  }
  attr {
    key: "_output_shapes"
    value {
      list {
        shape {
          dim {
            size: -1
          }
          dim {
            size: 1
          }
        }
      }
    }
  }
}
node {
  name: "linear/linear_model/linear_model/linear_model/Pclass/to_sparse_input/ignore_value/x"
  op: "Const"
  attr {
    key: "_output_shapes"
    value {
      list {
        shape {
        }
      }
    }
  }
  attr {
    key: "dtype"
    value {
      type: DT_INT32
    }
  }
  attr {
    key: "value"
    value {
      tensor {
        dtype: DT_INT32
        tensor_shape {
        }
        int_val: -1
      }
    }
  }
}
node {
  name: "linear/linear_model/linear_model/linear_model/Pclass/to_sparse_input/ignore_value"
  op: "Cast"
  input: "linear/linear_model/linear_model/linear_model/Pclass/to_sparse_input/ignore_value/x"
  attr {
    key: "DstT"
    value {
      type: DT_INT64
    }
  }
  attr {
    key: "SrcT"
    value {
      type: DT_INT32
    }
  }
  attr {
    key: "Truncate"
    value {
      b: false
    }
  }
  attr {
    key: "_output_shapes"
    value {
      list {
        shape {
        }
      }
    }
  }
}
node {
  name: "linear/linear_model/linear_model/linear_model/Pclass/to_sparse_input/NotEqual"
  op: "NotEqual"
  input: "linear/linear_model/linear_model/linear_model/Pclass/ExpandDims"
  input: "linear/linear_model/linear_model/linear_model/Pclass/to_sparse_input/ignore_value"
  attr {
    key: "T"
    value {
      type: DT_INT64
    }
  }
  attr {
    key: "_output_shapes"
    value {
      list {
        shape {
          dim {
            size: -1
          }
          dim {
            size: 1
          }
        }
      }
    }
  }
}
node {
  name: "linear/linear_model/linear_model/linear_model/Pclass/to_sparse_input/indices"
  op: "Where"
  input: "linear/linear_model/linear_model/linear_model/Pclass/to_sparse_input/NotEqual"
  attr {
    key: "T"
    value {
      type: DT_BOOL
    }
  }
  attr {
    key: "_output_shapes"
    value {
      list {
        shape {
          dim {
            size: -1
          }
          dim {
            size: 2
          }
        }
      }
    }
  }
}
node {
  name: "linear/linear_model/linear_model/linear_model/Pclass/to_sparse_input/values"
  op: "GatherNd"
  input: "linear/linear_model/linear_model/linear_model/Pclass/ExpandDims"
  input: "linear/linear_model/linear_model/linear_model/Pclass/to_sparse_input/indices"
  attr {
    key: "Tindices"
    value {
      type: DT_INT64
    }
  }
  attr {
    key: "Tparams"
    value {
      type: DT_INT64
    }
  }
  attr {
    key: "_output_shapes"
    value {
      list {
        shape {
          dim {
            size: -1
          }
        }
      }
    }
  }
}
node {
  name: "linear/linear_model/linear_model/linear_model/Pclass/to_sparse_input/dense_shape"
  op: "Shape"
  input: "linear/linear_model/linear_model/linear_model/Pclass/ExpandDims"
  attr {
    key: "T"
    value {
      type: DT_INT64
    }
  }
  attr {
    key: "_output_shapes"
    value {
      list {
        shape {
          dim {
            size: 2
          }
        }
      }
    }
  }
  attr {
    key: "out_type"
    value {
      type: DT_INT64
    }
  }
}
node {
  name: "linear/linear_model/linear_model/linear_model/Pclass/num_buckets/x"
  op: "Const"
  attr {
    key: "_output_shapes"
    value {
      list {
        shape {
        }
      }
    }
  }
  attr {
    key: "dtype"
    value {
      type: DT_INT32
    }
  }
  attr {
    key: "value"
    value {
      tensor {
        dtype: DT_INT32
        tensor_shape {
        }
        int_val: 3
      }
    }
  }
}
node {
  name: "linear/linear_model/linear_model/linear_model/Pclass/num_buckets"
  op: "Cast"
  input: "linear/linear_model/linear_model/linear_model/Pclass/num_buckets/x"
  attr {
    key: "DstT"
    value {
      type: DT_INT64
    }
  }
  attr {
    key: "SrcT"
    value {
      type: DT_INT32
    }
  }
  attr {
    key: "Truncate"
    value {
      b: false
    }
  }
  attr {
    key: "_output_shapes"
    value {
      list {
        shape {
        }
      }
    }
  }
}
node {
  name: "linear/linear_model/linear_model/linear_model/Pclass/zero/x"
  op: "Const"
  attr {
    key: "_output_shapes"
    value {
      list {
        shape {
        }
      }
    }
  }
  attr {
    key: "dtype"
    value {
      type: DT_INT32
    }
  }
  attr {
    key: "value"
    value {
      tensor {
        dtype: DT_INT32
        tensor_shape {
        }
        int_val: 0
      }
    }
  }
}
node {
  name: "linear/linear_model/linear_model/linear_model/Pclass/zero"
  op: "Cast"
  input: "linear/linear_model/linear_model/linear_model/Pclass/zero/x"
  attr {
    key: "DstT"
    value {
      type: DT_INT64
    }
  }
  attr {
    key: "SrcT"
    value {
      type: DT_INT32
    }
  }
  attr {
    key: "Truncate"
    value {
      b: false
    }
  }
  attr {
    key: "_output_shapes"
    value {
      list {
        shape {
        }
      }
    }
  }
}
node {
  name: "linear/linear_model/linear_model/linear_model/Pclass/assert_less_than_num_buckets/Less"
  op: "Less"
  input: "linear/linear_model/linear_model/linear_model/Pclass/to_sparse_input/values"
  input: "linear/linear_model/linear_model/linear_model/Pclass/num_buckets"
  attr {
    key: "T"
    value {
      type: DT_INT64
    }
  }
  attr {
    key: "_output_shapes"
    value {
      list {
        shape {
          dim {
            size: -1
          }
        }
      }
    }
  }
}
node {
  name: "linear/linear_model/linear_model/linear_model/Pclass/assert_less_than_num_buckets/Const"
  op: "Const"
  attr {
    key: "_output_shapes"
    value {
      list {
        shape {
          dim {
            size: 1
          }
        }
      }
    }
  }
  attr {
    key: "dtype"
    value {
      type: DT_INT32
    }
  }
  attr {
    key: "value"
    value {
      tensor {
        dtype: DT_INT32
        tensor_shape {
          dim {
            size: 1
          }
        }
        int_val: 0
      }
    }
  }
}
node {
  name: "linear/linear_model/linear_model/linear_model/Pclass/assert_less_than_num_buckets/All"
  op: "All"
  input: "linear/linear_model/linear_model/linear_model/Pclass/assert_less_than_num_buckets/Less"
  input: "linear/linear_model/linear_model/linear_model/Pclass/assert_less_than_num_buckets/Const"
  attr {
    key: "Tidx"
    value {
      type: DT_INT32
    }
  }
  attr {
    key: "_output_shapes"
    value {
      list {
        shape {
        }
      }
    }
  }
  attr {
    key: "keep_dims"
    value {
      b: false
    }
  }
}
node {
  name: "linear/linear_model/linear_model/linear_model/Pclass/assert_less_than_num_buckets/Assert/AssertGuard/Switch"
  op: "Switch"
  input: "linear/linear_model/linear_model/linear_model/Pclass/assert_less_than_num_buckets/All"
  input: "linear/linear_model/linear_model/linear_model/Pclass/assert_less_than_num_buckets/All"
  attr {
    key: "T"
    value {
      type: DT_BOOL
    }
  }
  attr {
    key: "_output_shapes"
    value {
      list {
        shape {
        }
        shape {
        }
      }
    }
  }
}
node {
  name: "linear/linear_model/linear_model/linear_model/Pclass/assert_less_than_num_buckets/Assert/AssertGuard/switch_t"
  op: "Identity"
  input: "linear/linear_model/linear_model/linear_model/Pclass/assert_less_than_num_buckets/Assert/AssertGuard/Switch:1"
  attr {
    key: "T"
    value {
      type: DT_BOOL
    }
  }
  attr {
    key: "_output_shapes"
    value {
      list {
        shape {
        }
      }
    }
  }
}
node {
  name: "linear/linear_model/linear_model/linear_model/Pclass/assert_less_than_num_buckets/Assert/AssertGuard/switch_f"
  op: "Identity"
  input: "linear/linear_model/linear_model/linear_model/Pclass/assert_less_than_num_buckets/Assert/AssertGuard/Switch"
  attr {
    key: "T"
    value {
      type: DT_BOOL
    }
  }
  attr {
    key: "_output_shapes"
    value {
      list {
        shape {
        }
      }
    }
  }
}
node {
  name: "linear/linear_model/linear_model/linear_model/Pclass/assert_less_than_num_buckets/Assert/AssertGuard/pred_id"
  op: "Identity"
  input: "linear/linear_model/linear_model/linear_model/Pclass/assert_less_than_num_buckets/All"
  attr {
    key: "T"
    value {
      type: DT_BOOL
    }
  }
  attr {
    key: "_output_shapes"
    value {
      list {
        shape {
        }
      }
    }
  }
}
node {
  name: "linear/linear_model/linear_model/linear_model/Pclass/assert_less_than_num_buckets/Assert/AssertGuard/NoOp"
  op: "NoOp"
  input: "^linear/linear_model/linear_model/linear_model/Pclass/assert_less_than_num_buckets/Assert/AssertGuard/switch_t"
}
node {
  name: "linear/linear_model/linear_model/linear_model/Pclass/assert_less_than_num_buckets/Assert/AssertGuard/control_dependency"
  op: "Identity"
  input: "linear/linear_model/linear_model/linear_model/Pclass/assert_less_than_num_buckets/Assert/AssertGuard/switch_t"
  input: "^linear/linear_model/linear_model/linear_model/Pclass/assert_less_than_num_buckets/Assert/AssertGuard/NoOp"
  attr {
    key: "T"
    value {
      type: DT_BOOL
    }
  }
  attr {
    key: "_class"
    value {
      list {
        s: "loc:@linear/linear_model/linear_model/linear_model/Pclass/assert_less_than_num_buckets/Assert/AssertGuard/switch_t"
      }
    }
  }
  attr {
    key: "_output_shapes"
    value {
      list {
        shape {
        }
      }
    }
  }
}
node {
  name: "linear/linear_model/linear_model/linear_model/Pclass/assert_less_than_num_buckets/Assert/AssertGuard/Assert"
  op: "Assert"
  input: "linear/linear_model/linear_model/linear_model/Pclass/assert_less_than_num_buckets/Assert/AssertGuard/Assert/Switch"
  input: "linear/linear_model/linear_model/linear_model/Pclass/assert_less_than_num_buckets/Assert/AssertGuard/Assert/Switch_1"
  input: "linear/linear_model/linear_model/linear_model/Pclass/assert_less_than_num_buckets/Assert/AssertGuard/Assert/Switch_2"
  attr {
    key: "T"
    value {
      list {
        type: DT_INT64
        type: DT_INT64
      }
    }
  }
  attr {
    key: "summarize"
    value {
      i: 3
    }
  }
}
node {
  name: "linear/linear_model/linear_model/linear_model/Pclass/assert_less_than_num_buckets/Assert/AssertGuard/Assert/Switch"
  op: "Switch"
  input: "linear/linear_model/linear_model/linear_model/Pclass/assert_less_than_num_buckets/All"
  input: "linear/linear_model/linear_model/linear_model/Pclass/assert_less_than_num_buckets/Assert/AssertGuard/pred_id"
  attr {
    key: "T"
    value {
      type: DT_BOOL
    }
  }
  attr {
    key: "_class"
    value {
      list {
        s: "loc:@linear/linear_model/linear_model/linear_model/Pclass/assert_less_than_num_buckets/All"
      }
    }
  }
  attr {
    key: "_output_shapes"
    value {
      list {
        shape {
        }
        shape {
        }
      }
    }
  }
}
node {
  name: "linear/linear_model/linear_model/linear_model/Pclass/assert_less_than_num_buckets/Assert/AssertGuard/Assert/Switch_1"
  op: "Switch"
  input: "linear/linear_model/linear_model/linear_model/Pclass/to_sparse_input/values"
  input: "linear/linear_model/linear_model/linear_model/Pclass/assert_less_than_num_buckets/Assert/AssertGuard/pred_id"
  attr {
    key: "T"
    value {
      type: DT_INT64
    }
  }
  attr {
    key: "_class"
    value {
      list {
        s: "loc:@linear/linear_model/linear_model/linear_model/Pclass/to_sparse_input/values"
      }
    }
  }
  attr {
    key: "_output_shapes"
    value {
      list {
        shape {
          dim {
            size: -1
          }
        }
        shape {
          dim {
            size: -1
          }
        }
      }
    }
  }
}
node {
  name: "linear/linear_model/linear_model/linear_model/Pclass/assert_less_than_num_buckets/Assert/AssertGuard/Assert/Switch_2"
  op: "Switch"
  input: "linear/linear_model/linear_model/linear_model/Pclass/num_buckets"
  input: "linear/linear_model/linear_model/linear_model/Pclass/assert_less_than_num_buckets/Assert/AssertGuard/pred_id"
  attr {
    key: "T"
    value {
      type: DT_INT64
    }
  }
  attr {
    key: "_class"
    value {
      list {
        s: "loc:@linear/linear_model/linear_model/linear_model/Pclass/num_buckets"
      }
    }
  }
  attr {
    key: "_output_shapes"
    value {
      list {
        shape {
        }
        shape {
        }
      }
    }
  }
}
node {
  name: "linear/linear_model/linear_model/linear_model/Pclass/assert_less_than_num_buckets/Assert/AssertGuard/control_dependency_1"
  op: "Identity"
  input: "linear/linear_model/linear_model/linear_model/Pclass/assert_less_than_num_buckets/Assert/AssertGuard/switch_f"
  input: "^linear/linear_model/linear_model/linear_model/Pclass/assert_less_than_num_buckets/Assert/AssertGuard/Assert"
  attr {
    key: "T"
    value {
      type: DT_BOOL
    }
  }
  attr {
    key: "_class"
    value {
      list {
        s: "loc:@linear/linear_model/linear_model/linear_model/Pclass/assert_less_than_num_buckets/Assert/AssertGuard/switch_f"
      }
    }
  }
  attr {
    key: "_output_shapes"
    value {
      list {
        shape {
        }
      }
    }
  }
}
node {
  name: "linear/linear_model/linear_model/linear_model/Pclass/assert_less_than_num_buckets/Assert/AssertGuard/Merge"
  op: "Merge"
  input: "linear/linear_model/linear_model/linear_model/Pclass/assert_less_than_num_buckets/Assert/AssertGuard/control_dependency_1"
  input: "linear/linear_model/linear_model/linear_model/Pclass/assert_less_than_num_buckets/Assert/AssertGuard/control_dependency"
  attr {
    key: "N"
    value {
      i: 2
    }
  }
  attr {
    key: "T"
    value {
      type: DT_BOOL
    }
  }
  attr {
    key: "_output_shapes"
    value {
      list {
        shape {
        }
        shape {
        }
      }
    }
  }
}
node {
  name: "linear/linear_model/linear_model/linear_model/Pclass/assert_greater_or_equal_0/GreaterEqual"
  op: "GreaterEqual"
  input: "linear/linear_model/linear_model/linear_model/Pclass/to_sparse_input/values"
  input: "linear/linear_model/linear_model/linear_model/Pclass/zero"
  attr {
    key: "T"
    value {
      type: DT_INT64
    }
  }
  attr {
    key: "_output_shapes"
    value {
      list {
        shape {
          dim {
            size: -1
          }
        }
      }
    }
  }
}
node {
  name: "linear/linear_model/linear_model/linear_model/Pclass/assert_greater_or_equal_0/Const"
  op: "Const"
  attr {
    key: "_output_shapes"
    value {
      list {
        shape {
          dim {
            size: 1
          }
        }
      }
    }
  }
  attr {
    key: "dtype"
    value {
      type: DT_INT32
    }
  }
  attr {
    key: "value"
    value {
      tensor {
        dtype: DT_INT32
        tensor_shape {
          dim {
            size: 1
          }
        }
        int_val: 0
      }
    }
  }
}
node {
  name: "linear/linear_model/linear_model/linear_model/Pclass/assert_greater_or_equal_0/All"
  op: "All"
  input: "linear/linear_model/linear_model/linear_model/Pclass/assert_greater_or_equal_0/GreaterEqual"
  input: "linear/linear_model/linear_model/linear_model/Pclass/assert_greater_or_equal_0/Const"
  attr {
    key: "Tidx"
    value {
      type: DT_INT32
    }
  }
  attr {
    key: "_output_shapes"
    value {
      list {
        shape {
        }
      }
    }
  }
  attr {
    key: "keep_dims"
    value {
      b: false
    }
  }
}
node {
  name: "linear/linear_model/linear_model/linear_model/Pclass/assert_greater_or_equal_0/Assert/AssertGuard/Switch"
  op: "Switch"
  input: "linear/linear_model/linear_model/linear_model/Pclass/assert_greater_or_equal_0/All"
  input: "linear/linear_model/linear_model/linear_model/Pclass/assert_greater_or_equal_0/All"
  attr {
    key: "T"
    value {
      type: DT_BOOL
    }
  }
  attr {
    key: "_output_shapes"
    value {
      list {
        shape {
        }
        shape {
        }
      }
    }
  }
}
node {
  name: "linear/linear_model/linear_model/linear_model/Pclass/assert_greater_or_equal_0/Assert/AssertGuard/switch_t"
  op: "Identity"
  input: "linear/linear_model/linear_model/linear_model/Pclass/assert_greater_or_equal_0/Assert/AssertGuard/Switch:1"
  attr {
    key: "T"
    value {
      type: DT_BOOL
    }
  }
  attr {
    key: "_output_shapes"
    value {
      list {
        shape {
        }
      }
    }
  }
}
node {
  name: "linear/linear_model/linear_model/linear_model/Pclass/assert_greater_or_equal_0/Assert/AssertGuard/switch_f"
  op: "Identity"
  input: "linear/linear_model/linear_model/linear_model/Pclass/assert_greater_or_equal_0/Assert/AssertGuard/Switch"
  attr {
    key: "T"
    value {
      type: DT_BOOL
    }
  }
  attr {
    key: "_output_shapes"
    value {
      list {
        shape {
        }
      }
    }
  }
}
node {
  name: "linear/linear_model/linear_model/linear_model/Pclass/assert_greater_or_equal_0/Assert/AssertGuard/pred_id"
  op: "Identity"
  input: "linear/linear_model/linear_model/linear_model/Pclass/assert_greater_or_equal_0/All"
  attr {
    key: "T"
    value {
      type: DT_BOOL
    }
  }
  attr {
    key: "_output_shapes"
    value {
      list {
        shape {
        }
      }
    }
  }
}
node {
  name: "linear/linear_model/linear_model/linear_model/Pclass/assert_greater_or_equal_0/Assert/AssertGuard/NoOp"
  op: "NoOp"
  input: "^linear/linear_model/linear_model/linear_model/Pclass/assert_greater_or_equal_0/Assert/AssertGuard/switch_t"
}
node {
  name: "linear/linear_model/linear_model/linear_model/Pclass/assert_greater_or_equal_0/Assert/AssertGuard/control_dependency"
  op: "Identity"
  input: "linear/linear_model/linear_model/linear_model/Pclass/assert_greater_or_equal_0/Assert/AssertGuard/switch_t"
  input: "^linear/linear_model/linear_model/linear_model/Pclass/assert_greater_or_equal_0/Assert/AssertGuard/NoOp"
  attr {
    key: "T"
    value {
      type: DT_BOOL
    }
  }
  attr {
    key: "_class"
    value {
      list {
        s: "loc:@linear/linear_model/linear_model/linear_model/Pclass/assert_greater_or_equal_0/Assert/AssertGuard/switch_t"
      }
    }
  }
  attr {
    key: "_output_shapes"
    value {
      list {
        shape {
        }
      }
    }
  }
}
node {
  name: "linear/linear_model/linear_model/linear_model/Pclass/assert_greater_or_equal_0/Assert/AssertGuard/Assert"
  op: "Assert"
  input: "linear/linear_model/linear_model/linear_model/Pclass/assert_greater_or_equal_0/Assert/AssertGuard/Assert/Switch"
  input: "linear/linear_model/linear_model/linear_model/Pclass/assert_greater_or_equal_0/Assert/AssertGuard/Assert/Switch_1"
  attr {
    key: "T"
    value {
      list {
        type: DT_INT64
      }
    }
  }
  attr {
    key: "summarize"
    value {
      i: 3
    }
  }
}
node {
  name: "linear/linear_model/linear_model/linear_model/Pclass/assert_greater_or_equal_0/Assert/AssertGuard/Assert/Switch"
  op: "Switch"
  input: "linear/linear_model/linear_model/linear_model/Pclass/assert_greater_or_equal_0/All"
  input: "linear/linear_model/linear_model/linear_model/Pclass/assert_greater_or_equal_0/Assert/AssertGuard/pred_id"
  attr {
    key: "T"
    value {
      type: DT_BOOL
    }
  }
  attr {
    key: "_class"
    value {
      list {
        s: "loc:@linear/linear_model/linear_model/linear_model/Pclass/assert_greater_or_equal_0/All"
      }
    }
  }
  attr {
    key: "_output_shapes"
    value {
      list {
        shape {
        }
        shape {
        }
      }
    }
  }
}
node {
  name: "linear/linear_model/linear_model/linear_model/Pclass/assert_greater_or_equal_0/Assert/AssertGuard/Assert/Switch_1"
  op: "Switch"
  input: "linear/linear_model/linear_model/linear_model/Pclass/to_sparse_input/values"
  input: "linear/linear_model/linear_model/linear_model/Pclass/assert_greater_or_equal_0/Assert/AssertGuard/pred_id"
  attr {
    key: "T"
    value {
      type: DT_INT64
    }
  }
  attr {
    key: "_class"
    value {
      list {
        s: "loc:@linear/linear_model/linear_model/linear_model/Pclass/to_sparse_input/values"
      }
    }
  }
  attr {
    key: "_output_shapes"
    value {
      list {
        shape {
          dim {
            size: -1
          }
        }
        shape {
          dim {
            size: -1
          }
        }
      }
    }
  }
}
node {
  name: "linear/linear_model/linear_model/linear_model/Pclass/assert_greater_or_equal_0/Assert/AssertGuard/control_dependency_1"
  op: "Identity"
  input: "linear/linear_model/linear_model/linear_model/Pclass/assert_greater_or_equal_0/Assert/AssertGuard/switch_f"
  input: "^linear/linear_model/linear_model/linear_model/Pclass/assert_greater_or_equal_0/Assert/AssertGuard/Assert"
  attr {
    key: "T"
    value {
      type: DT_BOOL
    }
  }
  attr {
    key: "_class"
    value {
      list {
        s: "loc:@linear/linear_model/linear_model/linear_model/Pclass/assert_greater_or_equal_0/Assert/AssertGuard/switch_f"
      }
    }
  }
  attr {
    key: "_output_shapes"
    value {
      list {
        shape {
        }
      }
    }
  }
}
node {
  name: "linear/linear_model/linear_model/linear_model/Pclass/assert_greater_or_equal_0/Assert/AssertGuard/Merge"
  op: "Merge"
  input: "linear/linear_model/linear_model/linear_model/Pclass/assert_greater_or_equal_0/Assert/AssertGuard/control_dependency_1"
  input: "linear/linear_model/linear_model/linear_model/Pclass/assert_greater_or_equal_0/Assert/AssertGuard/control_dependency"
  attr {
    key: "N"
    value {
      i: 2
    }
  }
  attr {
    key: "T"
    value {
      type: DT_BOOL
    }
  }
  attr {
    key: "_output_shapes"
    value {
      list {
        shape {
        }
        shape {
        }
      }
    }
  }
}
node {
  name: "linear/linear_model/linear_model/linear_model/Pclass/Identity"
  op: "Identity"
  input: "linear/linear_model/linear_model/linear_model/Pclass/to_sparse_input/values"
  input: "^linear/linear_model/linear_model/linear_model/Pclass/assert_greater_or_equal_0/Assert/AssertGuard/Merge"
  input: "^linear/linear_model/linear_model/linear_model/Pclass/assert_less_than_num_buckets/Assert/AssertGuard/Merge"
  attr {
    key: "T"
    value {
      type: DT_INT64
    }
  }
  attr {
    key: "_output_shapes"
    value {
      list {
        shape {
          dim {
            size: -1
          }
        }
      }
    }
  }
}
node {
  name: "linear/linear_model/linear_model/linear_model/Pclass/Shape/Cast"
  op: "Cast"
  input: "linear/linear_model/linear_model/linear_model/Pclass/to_sparse_input/dense_shape"
  attr {
    key: "DstT"
    value {
      type: DT_INT32
    }
  }
  attr {
    key: "SrcT"
    value {
      type: DT_INT64
    }
  }
  attr {
    key: "Truncate"
    value {
      b: false
    }
  }
  attr {
    key: "_output_shapes"
    value {
      list {
        shape {
          dim {
            size: 2
          }
        }
      }
    }
  }
}
node {
  name: "linear/linear_model/linear_model/linear_model/Pclass/strided_slice/stack"
  op: "Const"
  attr {
    key: "_output_shapes"
    value {
      list {
        shape {
          dim {
            size: 1
          }
        }
      }
    }
  }
  attr {
    key: "dtype"
    value {
      type: DT_INT32
    }
  }
  attr {
    key: "value"
    value {
      tensor {
        dtype: DT_INT32
        tensor_shape {
          dim {
            size: 1
          }
        }
        int_val: 0
      }
    }
  }
}
node {
  name: "linear/linear_model/linear_model/linear_model/Pclass/strided_slice/stack_1"
  op: "Const"
  attr {
    key: "_output_shapes"
    value {
      list {
        shape {
          dim {
            size: 1
          }
        }
      }
    }
  }
  attr {
    key: "dtype"
    value {
      type: DT_INT32
    }
  }
  attr {
    key: "value"
    value {
      tensor {
        dtype: DT_INT32
        tensor_shape {
          dim {
            size: 1
          }
        }
        int_val: 1
      }
    }
  }
}
node {
  name: "linear/linear_model/linear_model/linear_model/Pclass/strided_slice/stack_2"
  op: "Const"
  attr {
    key: "_output_shapes"
    value {
      list {
        shape {
          dim {
            size: 1
          }
        }
      }
    }
  }
  attr {
    key: "dtype"
    value {
      type: DT_INT32
    }
  }
  attr {
    key: "value"
    value {
      tensor {
        dtype: DT_INT32
        tensor_shape {
          dim {
            size: 1
          }
        }
        int_val: 1
      }
    }
  }
}
node {
  name: "linear/linear_model/linear_model/linear_model/Pclass/strided_slice"
  op: "StridedSlice"
  input: "linear/linear_model/linear_model/linear_model/Pclass/Shape/Cast"
  input: "linear/linear_model/linear_model/linear_model/Pclass/strided_slice/stack"
  input: "linear/linear_model/linear_model/linear_model/Pclass/strided_slice/stack_1"
  input: "linear/linear_model/linear_model/linear_model/Pclass/strided_slice/stack_2"
  attr {
    key: "Index"
    value {
      type: DT_INT32
    }
  }
  attr {
    key: "T"
    value {
      type: DT_INT32
    }
  }
  attr {
    key: "_output_shapes"
    value {
      list {
        shape {
        }
      }
    }
  }
  attr {
    key: "begin_mask"
    value {
      i: 0
    }
  }
  attr {
    key: "ellipsis_mask"
    value {
      i: 0
    }
  }
  attr {
    key: "end_mask"
    value {
      i: 0
    }
  }
  attr {
    key: "new_axis_mask"
    value {
      i: 0
    }
  }
  attr {
    key: "shrink_axis_mask"
    value {
      i: 1
    }
  }
}
node {
  name: "linear/linear_model/linear_model/linear_model/Pclass/Cast/x/1"
  op: "Const"
  attr {
    key: "_output_shapes"
    value {
      list {
        shape {
        }
      }
    }
  }
  attr {
    key: "dtype"
    value {
      type: DT_INT32
    }
  }
  attr {
    key: "value"
    value {
      tensor {
        dtype: DT_INT32
        tensor_shape {
        }
        int_val: -1
      }
    }
  }
}
node {
  name: "linear/linear_model/linear_model/linear_model/Pclass/Cast/x"
  op: "Pack"
  input: "linear/linear_model/linear_model/linear_model/Pclass/strided_slice"
  input: "linear/linear_model/linear_model/linear_model/Pclass/Cast/x/1"
  attr {
    key: "N"
    value {
      i: 2
    }
  }
  attr {
    key: "T"
    value {
      type: DT_INT32
    }
  }
  attr {
    key: "_output_shapes"
    value {
      list {
        shape {
          dim {
            size: 2
          }
        }
      }
    }
  }
  attr {
    key: "axis"
    value {
      i: 0
    }
  }
}
node {
  name: "linear/linear_model/linear_model/linear_model/Pclass/Cast"
  op: "Cast"
  input: "linear/linear_model/linear_model/linear_model/Pclass/Cast/x"
  attr {
    key: "DstT"
    value {
      type: DT_INT64
    }
  }
  attr {
    key: "SrcT"
    value {
      type: DT_INT32
    }
  }
  attr {
    key: "Truncate"
    value {
      b: false
    }
  }
  attr {
    key: "_output_shapes"
    value {
      list {
        shape {
          dim {
            size: 2
          }
        }
      }
    }
  }
}
node {
  name: "linear/linear_model/linear_model/linear_model/Pclass/SparseReshape"
  op: "SparseReshape"
  input: "linear/linear_model/linear_model/linear_model/Pclass/to_sparse_input/indices"
  input: "linear/linear_model/linear_model/linear_model/Pclass/to_sparse_input/dense_shape"
  input: "linear/linear_model/linear_model/linear_model/Pclass/Cast"
  attr {
    key: "_output_shapes"
    value {
      list {
        shape {
          dim {
            size: -1
          }
          dim {
            size: 2
          }
        }
        shape {
          dim {
            size: 2
          }
        }
      }
    }
  }
}
node {
  name: "linear/linear_model/linear_model/linear_model/Pclass/SparseReshape/Identity"
  op: "Identity"
  input: "linear/linear_model/linear_model/linear_model/Pclass/Identity"
  attr {
    key: "T"
    value {
      type: DT_INT64
    }
  }
  attr {
    key: "_output_shapes"
    value {
      list {
        shape {
          dim {
            size: -1
          }
        }
      }
    }
  }
}
node {
  name: "linear/linear_model/linear_model/linear_model/Pclass/weighted_sum/Slice/begin"
  op: "Const"
  attr {
    key: "_output_shapes"
    value {
      list {
        shape {
          dim {
            size: 1
          }
        }
      }
    }
  }
  attr {
    key: "dtype"
    value {
      type: DT_INT32
    }
  }
  attr {
    key: "value"
    value {
      tensor {
        dtype: DT_INT32
        tensor_shape {
          dim {
            size: 1
          }
        }
        int_val: 0
      }
    }
  }
}
node {
  name: "linear/linear_model/linear_model/linear_model/Pclass/weighted_sum/Slice/size"
  op: "Const"
  attr {
    key: "_output_shapes"
    value {
      list {
        shape {
          dim {
            size: 1
          }
        }
      }
    }
  }
  attr {
    key: "dtype"
    value {
      type: DT_INT32
    }
  }
  attr {
    key: "value"
    value {
      tensor {
        dtype: DT_INT32
        tensor_shape {
          dim {
            size: 1
          }
        }
        int_val: 1
      }
    }
  }
}
node {
  name: "linear/linear_model/linear_model/linear_model/Pclass/weighted_sum/Slice"
  op: "Slice"
  input: "linear/linear_model/linear_model/linear_model/Pclass/SparseReshape:1"
  input: "linear/linear_model/linear_model/linear_model/Pclass/weighted_sum/Slice/begin"
  input: "linear/linear_model/linear_model/linear_model/Pclass/weighted_sum/Slice/size"
  attr {
    key: "Index"
    value {
      type: DT_INT32
    }
  }
  attr {
    key: "T"
    value {
      type: DT_INT64
    }
  }
  attr {
    key: "_output_shapes"
    value {
      list {
        shape {
          dim {
            size: 1
          }
        }
      }
    }
  }
}
node {
  name: "linear/linear_model/linear_model/linear_model/Pclass/weighted_sum/Const"
  op: "Const"
  attr {
    key: "_output_shapes"
    value {
      list {
        shape {
          dim {
            size: 1
          }
        }
      }
    }
  }
  attr {
    key: "dtype"
    value {
      type: DT_INT32
    }
  }
  attr {
    key: "value"
    value {
      tensor {
        dtype: DT_INT32
        tensor_shape {
          dim {
            size: 1
          }
        }
        int_val: 0
      }
    }
  }
}
node {
  name: "linear/linear_model/linear_model/linear_model/Pclass/weighted_sum/Prod"
  op: "Prod"
  input: "linear/linear_model/linear_model/linear_model/Pclass/weighted_sum/Slice"
  input: "linear/linear_model/linear_model/linear_model/Pclass/weighted_sum/Const"
  attr {
    key: "T"
    value {
      type: DT_INT64
    }
  }
  attr {
    key: "Tidx"
    value {
      type: DT_INT32
    }
  }
  attr {
    key: "_output_shapes"
    value {
      list {
        shape {
        }
      }
    }
  }
  attr {
    key: "keep_dims"
    value {
      b: false
    }
  }
}
node {
  name: "linear/linear_model/linear_model/linear_model/Pclass/weighted_sum/GatherV2/indices"
  op: "Const"
  attr {
    key: "_output_shapes"
    value {
      list {
        shape {
        }
      }
    }
  }
  attr {
    key: "dtype"
    value {
      type: DT_INT32
    }
  }
  attr {
    key: "value"
    value {
      tensor {
        dtype: DT_INT32
        tensor_shape {
        }
        int_val: 1
      }
    }
  }
}
node {
  name: "linear/linear_model/linear_model/linear_model/Pclass/weighted_sum/GatherV2/axis"
  op: "Const"
  attr {
    key: "_output_shapes"
    value {
      list {
        shape {
        }
      }
    }
  }
  attr {
    key: "dtype"
    value {
      type: DT_INT32
    }
  }
  attr {
    key: "value"
    value {
      tensor {
        dtype: DT_INT32
        tensor_shape {
        }
        int_val: 0
      }
    }
  }
}
node {
  name: "linear/linear_model/linear_model/linear_model/Pclass/weighted_sum/GatherV2"
  op: "GatherV2"
  input: "linear/linear_model/linear_model/linear_model/Pclass/SparseReshape:1"
  input: "linear/linear_model/linear_model/linear_model/Pclass/weighted_sum/GatherV2/indices"
  input: "linear/linear_model/linear_model/linear_model/Pclass/weighted_sum/GatherV2/axis"
  attr {
    key: "Taxis"
    value {
      type: DT_INT32
    }
  }
  attr {
    key: "Tindices"
    value {
      type: DT_INT32
    }
  }
  attr {
    key: "Tparams"
    value {
      type: DT_INT64
    }
  }
  attr {
    key: "_output_shapes"
    value {
      list {
        shape {
        }
      }
    }
  }
}
node {
  name: "linear/linear_model/linear_model/linear_model/Pclass/weighted_sum/Cast/x"
  op: "Pack"
  input: "linear/linear_model/linear_model/linear_model/Pclass/weighted_sum/Prod"
  input: "linear/linear_model/linear_model/linear_model/Pclass/weighted_sum/GatherV2"
  attr {
    key: "N"
    value {
      i: 2
    }
  }
  attr {
    key: "T"
    value {
      type: DT_INT64
    }
  }
  attr {
    key: "_output_shapes"
    value {
      list {
        shape {
          dim {
            size: 2
          }
        }
      }
    }
  }
  attr {
    key: "axis"
    value {
      i: 0
    }
  }
}
node {
  name: "linear/linear_model/linear_model/linear_model/Pclass/weighted_sum/SparseReshape"
  op: "SparseReshape"
  input: "linear/linear_model/linear_model/linear_model/Pclass/SparseReshape"
  input: "linear/linear_model/linear_model/linear_model/Pclass/SparseReshape:1"
  input: "linear/linear_model/linear_model/linear_model/Pclass/weighted_sum/Cast/x"
  attr {
    key: "_output_shapes"
    value {
      list {
        shape {
          dim {
            size: -1
          }
          dim {
            size: 2
          }
        }
        shape {
          dim {
            size: 2
          }
        }
      }
    }
  }
}
node {
  name: "linear/linear_model/linear_model/linear_model/Pclass/weighted_sum/SparseReshape/Identity"
  op: "Identity"
  input: "linear/linear_model/linear_model/linear_model/Pclass/SparseReshape/Identity"
  attr {
    key: "T"
    value {
      type: DT_INT64
    }
  }
  attr {
    key: "_output_shapes"
    value {
      list {
        shape {
          dim {
            size: -1
          }
        }
      }
    }
  }
}
node {
  name: "linear/linear_model/linear_model/linear_model/Pclass/weighted_sum/GreaterEqual/y"
  op: "Const"
  attr {
    key: "_output_shapes"
    value {
      list {
        shape {
        }
      }
    }
  }
  attr {
    key: "dtype"
    value {
      type: DT_INT64
    }
  }
  attr {
    key: "value"
    value {
      tensor {
        dtype: DT_INT64
        tensor_shape {
        }
        int64_val: 0
      }
    }
  }
}
node {
  name: "linear/linear_model/linear_model/linear_model/Pclass/weighted_sum/GreaterEqual"
  op: "GreaterEqual"
  input: "linear/linear_model/linear_model/linear_model/Pclass/weighted_sum/SparseReshape/Identity"
  input: "linear/linear_model/linear_model/linear_model/Pclass/weighted_sum/GreaterEqual/y"
  attr {
    key: "T"
    value {
      type: DT_INT64
    }
  }
  attr {
    key: "_output_shapes"
    value {
      list {
        shape {
          dim {
            size: -1
          }
        }
      }
    }
  }
}
node {
  name: "linear/linear_model/linear_model/linear_model/Pclass/weighted_sum/Where"
  op: "Where"
  input: "linear/linear_model/linear_model/linear_model/Pclass/weighted_sum/GreaterEqual"
  attr {
    key: "T"
    value {
      type: DT_BOOL
    }
  }
  attr {
    key: "_output_shapes"
    value {
      list {
        shape {
          dim {
            size: -1
          }
          dim {
            size: 1
          }
        }
      }
    }
  }
}
node {
  name: "linear/linear_model/linear_model/linear_model/Pclass/weighted_sum/Reshape/shape"
  op: "Const"
  attr {
    key: "_output_shapes"
    value {
      list {
        shape {
          dim {
            size: 1
          }
        }
      }
    }
  }
  attr {
    key: "dtype"
    value {
      type: DT_INT32
    }
  }
  attr {
    key: "value"
    value {
      tensor {
        dtype: DT_INT32
        tensor_shape {
          dim {
            size: 1
          }
        }
        int_val: -1
      }
    }
  }
}
node {
  name: "linear/linear_model/linear_model/linear_model/Pclass/weighted_sum/Reshape"
  op: "Reshape"
  input: "linear/linear_model/linear_model/linear_model/Pclass/weighted_sum/Where"
  input: "linear/linear_model/linear_model/linear_model/Pclass/weighted_sum/Reshape/shape"
  attr {
    key: "T"
    value {
      type: DT_INT64
    }
  }
  attr {
    key: "Tshape"
    value {
      type: DT_INT32
    }
  }
  attr {
    key: "_output_shapes"
    value {
      list {
        shape {
          dim {
            size: -1
          }
        }
      }
    }
  }
}
node {
  name: "linear/linear_model/linear_model/linear_model/Pclass/weighted_sum/GatherV2_1/axis"
  op: "Const"
  attr {
    key: "_output_shapes"
    value {
      list {
        shape {
        }
      }
    }
  }
  attr {
    key: "dtype"
    value {
      type: DT_INT32
    }
  }
  attr {
    key: "value"
    value {
      tensor {
        dtype: DT_INT32
        tensor_shape {
        }
        int_val: 0
      }
    }
  }
}
node {
  name: "linear/linear_model/linear_model/linear_model/Pclass/weighted_sum/GatherV2_1"
  op: "GatherV2"
  input: "linear/linear_model/linear_model/linear_model/Pclass/weighted_sum/SparseReshape"
  input: "linear/linear_model/linear_model/linear_model/Pclass/weighted_sum/Reshape"
  input: "linear/linear_model/linear_model/linear_model/Pclass/weighted_sum/GatherV2_1/axis"
  attr {
    key: "Taxis"
    value {
      type: DT_INT32
    }
  }
  attr {
    key: "Tindices"
    value {
      type: DT_INT64
    }
  }
  attr {
    key: "Tparams"
    value {
      type: DT_INT64
    }
  }
  attr {
    key: "_output_shapes"
    value {
      list {
        shape {
          dim {
            size: -1
          }
          dim {
            size: 2
          }
        }
      }
    }
  }
}
node {
  name: "linear/linear_model/linear_model/linear_model/Pclass/weighted_sum/GatherV2_2/axis"
  op: "Const"
  attr {
    key: "_output_shapes"
    value {
      list {
        shape {
        }
      }
    }
  }
  attr {
    key: "dtype"
    value {
      type: DT_INT32
    }
  }
  attr {
    key: "value"
    value {
      tensor {
        dtype: DT_INT32
        tensor_shape {
        }
        int_val: 0
      }
    }
  }
}
node {
  name: "linear/linear_model/linear_model/linear_model/Pclass/weighted_sum/GatherV2_2"
  op: "GatherV2"
  input: "linear/linear_model/linear_model/linear_model/Pclass/weighted_sum/SparseReshape/Identity"
  input: "linear/linear_model/linear_model/linear_model/Pclass/weighted_sum/Reshape"
  input: "linear/linear_model/linear_model/linear_model/Pclass/weighted_sum/GatherV2_2/axis"
  attr {
    key: "Taxis"
    value {
      type: DT_INT32
    }
  }
  attr {
    key: "Tindices"
    value {
      type: DT_INT64
    }
  }
  attr {
    key: "Tparams"
    value {
      type: DT_INT64
    }
  }
  attr {
    key: "_output_shapes"
    value {
      list {
        shape {
          dim {
            size: -1
          }
        }
      }
    }
  }
}
node {
  name: "linear/linear_model/linear_model/linear_model/Pclass/weighted_sum/Identity"
  op: "Identity"
  input: "linear/linear_model/linear_model/linear_model/Pclass/weighted_sum/SparseReshape:1"
  attr {
    key: "T"
    value {
      type: DT_INT64
    }
  }
  attr {
    key: "_output_shapes"
    value {
      list {
        shape {
          dim {
            size: 2
          }
        }
      }
    }
  }
}
node {
  name: "linear/linear_model/linear_model/linear_model/Pclass/weighted_sum/SparseFillEmptyRows/Const"
  op: "Const"
  attr {
    key: "_output_shapes"
    value {
      list {
        shape {
        }
      }
    }
  }
  attr {
    key: "dtype"
    value {
      type: DT_INT64
    }
  }
  attr {
    key: "value"
    value {
      tensor {
        dtype: DT_INT64
        tensor_shape {
        }
        int64_val: 0
      }
    }
  }
}
node {
  name: "linear/linear_model/linear_model/linear_model/Pclass/weighted_sum/SparseFillEmptyRows/SparseFillEmptyRows"
  op: "SparseFillEmptyRows"
  input: "linear/linear_model/linear_model/linear_model/Pclass/weighted_sum/GatherV2_1"
  input: "linear/linear_model/linear_model/linear_model/Pclass/weighted_sum/GatherV2_2"
  input: "linear/linear_model/linear_model/linear_model/Pclass/weighted_sum/Identity"
  input: "linear/linear_model/linear_model/linear_model/Pclass/weighted_sum/SparseFillEmptyRows/Const"
  attr {
    key: "T"
    value {
      type: DT_INT64
    }
  }
  attr {
    key: "_output_shapes"
    value {
      list {
        shape {
          dim {
            size: -1
          }
          dim {
            size: 2
          }
        }
        shape {
          dim {
            size: -1
          }
        }
        shape {
          dim {
            size: -1
          }
        }
        shape {
          dim {
            size: -1
          }
        }
      }
    }
  }
}
node {
  name: "linear/linear_model/linear_model/linear_model/Pclass/weighted_sum/embedding_lookup_sparse/strided_slice/stack"
  op: "Const"
  attr {
    key: "_output_shapes"
    value {
      list {
        shape {
          dim {
            size: 2
          }
        }
      }
    }
  }
  attr {
    key: "dtype"
    value {
      type: DT_INT32
    }
  }
  attr {
    key: "value"
    value {
      tensor {
        dtype: DT_INT32
        tensor_shape {
          dim {
            size: 2
          }
        }
        tensor_content: "\000\000\000\000\000\000\000\000"
      }
    }
  }
}
node {
  name: "linear/linear_model/linear_model/linear_model/Pclass/weighted_sum/embedding_lookup_sparse/strided_slice/stack_1"
  op: "Const"
  attr {
    key: "_output_shapes"
    value {
      list {
        shape {
          dim {
            size: 2
          }
        }
      }
    }
  }
  attr {
    key: "dtype"
    value {
      type: DT_INT32
    }
  }
  attr {
    key: "value"
    value {
      tensor {
        dtype: DT_INT32
        tensor_shape {
          dim {
            size: 2
          }
        }
        tensor_content: "\000\000\000\000\001\000\000\000"
      }
    }
  }
}
node {
  name: "linear/linear_model/linear_model/linear_model/Pclass/weighted_sum/embedding_lookup_sparse/strided_slice/stack_2"
  op: "Const"
  attr {
    key: "_output_shapes"
    value {
      list {
        shape {
          dim {
            size: 2
          }
        }
      }
    }
  }
  attr {
    key: "dtype"
    value {
      type: DT_INT32
    }
  }
  attr {
    key: "value"
    value {
      tensor {
        dtype: DT_INT32
        tensor_shape {
          dim {
            size: 2
          }
        }
        tensor_content: "\001\000\000\000\001\000\000\000"
      }
    }
  }
}
node {
  name: "linear/linear_model/linear_model/linear_model/Pclass/weighted_sum/embedding_lookup_sparse/strided_slice"
  op: "StridedSlice"
  input: "linear/linear_model/linear_model/linear_model/Pclass/weighted_sum/SparseFillEmptyRows/SparseFillEmptyRows"
  input: "linear/linear_model/linear_model/linear_model/Pclass/weighted_sum/embedding_lookup_sparse/strided_slice/stack"
  input: "linear/linear_model/linear_model/linear_model/Pclass/weighted_sum/embedding_lookup_sparse/strided_slice/stack_1"
  input: "linear/linear_model/linear_model/linear_model/Pclass/weighted_sum/embedding_lookup_sparse/strided_slice/stack_2"
  attr {
    key: "Index"
    value {
      type: DT_INT32
    }
  }
  attr {
    key: "T"
    value {
      type: DT_INT64
    }
  }
  attr {
    key: "_output_shapes"
    value {
      list {
        shape {
          dim {
            size: -1
          }
        }
      }
    }
  }
  attr {
    key: "begin_mask"
    value {
      i: 1
    }
  }
  attr {
    key: "ellipsis_mask"
    value {
      i: 0
    }
  }
  attr {
    key: "end_mask"
    value {
      i: 1
    }
  }
  attr {
    key: "new_axis_mask"
    value {
      i: 0
    }
  }
  attr {
    key: "shrink_axis_mask"
    value {
      i: 2
    }
  }
}
node {
  name: "linear/linear_model/linear_model/linear_model/Pclass/weighted_sum/embedding_lookup_sparse/Cast"
  op: "Cast"
  input: "linear/linear_model/linear_model/linear_model/Pclass/weighted_sum/embedding_lookup_sparse/strided_slice"
  attr {
    key: "DstT"
    value {
      type: DT_INT32
    }
  }
  attr {
    key: "SrcT"
    value {
      type: DT_INT64
    }
  }
  attr {
    key: "Truncate"
    value {
      b: false
    }
  }
  attr {
    key: "_output_shapes"
    value {
      list {
        shape {
          dim {
            size: -1
          }
        }
      }
    }
  }
}
node {
  name: "linear/linear_model/linear_model/linear_model/Pclass/weighted_sum/embedding_lookup_sparse/Unique"
  op: "Unique"
  input: "linear/linear_model/linear_model/linear_model/Pclass/weighted_sum/SparseFillEmptyRows/SparseFillEmptyRows:1"
  attr {
    key: "T"
    value {
      type: DT_INT64
    }
  }
  attr {
    key: "_output_shapes"
    value {
      list {
        shape {
          dim {
            size: -1
          }
        }
        shape {
          dim {
            size: -1
          }
        }
      }
    }
  }
  attr {
    key: "out_idx"
    value {
      type: DT_INT32
    }
  }
}
node {
  name: "linear/linear_model/linear_model/linear_model/Pclass/weighted_sum/embedding_lookup_sparse/embedding_lookup"
  op: "ResourceGather"
  input: "linear/linear_model/Pclass/weights/part_0"
  input: "linear/linear_model/linear_model/linear_model/Pclass/weighted_sum/embedding_lookup_sparse/Unique"
  attr {
    key: "Tindices"
    value {
      type: DT_INT64
    }
  }
  attr {
    key: "_class"
    value {
      list {
        s: "loc:@linear/linear_model/Pclass/weights/part_0"
      }
    }
  }
  attr {
    key: "_output_shapes"
    value {
      list {
        shape {
          dim {
            size: -1
          }
          dim {
            size: 1
          }
        }
      }
    }
  }
  attr {
    key: "dtype"
    value {
      type: DT_FLOAT
    }
  }
  attr {
    key: "validate_indices"
    value {
      b: true
    }
  }
}
node {
  name: "linear/linear_model/linear_model/linear_model/Pclass/weighted_sum/embedding_lookup_sparse/embedding_lookup/Identity"
  op: "Identity"
  input: "linear/linear_model/linear_model/linear_model/Pclass/weighted_sum/embedding_lookup_sparse/embedding_lookup"
  attr {
    key: "T"
    value {
      type: DT_FLOAT
    }
  }
  attr {
    key: "_class"
    value {
      list {
        s: "loc:@linear/linear_model/Pclass/weights/part_0"
      }
    }
  }
  attr {
    key: "_output_shapes"
    value {
      list {
        shape {
          dim {
            size: -1
          }
          dim {
            size: 1
          }
        }
      }
    }
  }
}
node {
  name: "linear/linear_model/linear_model/linear_model/Pclass/weighted_sum/embedding_lookup_sparse/embedding_lookup/Identity_1"
  op: "Identity"
  input: "linear/linear_model/linear_model/linear_model/Pclass/weighted_sum/embedding_lookup_sparse/embedding_lookup/Identity"
  attr {
    key: "T"
    value {
      type: DT_FLOAT
    }
  }
  attr {
    key: "_output_shapes"
    value {
      list {
        shape {
          dim {
            size: -1
          }
          dim {
            size: 1
          }
        }
      }
    }
  }
}
node {
  name: "linear/linear_model/linear_model/linear_model/Pclass/weighted_sum/embedding_lookup_sparse"
  op: "SparseSegmentSum"
  input: "linear/linear_model/linear_model/linear_model/Pclass/weighted_sum/embedding_lookup_sparse/embedding_lookup/Identity_1"
  input: "linear/linear_model/linear_model/linear_model/Pclass/weighted_sum/embedding_lookup_sparse/Unique:1"
  input: "linear/linear_model/linear_model/linear_model/Pclass/weighted_sum/embedding_lookup_sparse/Cast"
  attr {
    key: "T"
    value {
      type: DT_FLOAT
    }
  }
  attr {
    key: "Tidx"
    value {
      type: DT_INT32
    }
  }
  attr {
    key: "_output_shapes"
    value {
      list {
        shape {
          dim {
            size: -1
          }
          dim {
            size: 1
          }
        }
      }
    }
  }
}
node {
  name: "linear/linear_model/linear_model/linear_model/Pclass/weighted_sum/Reshape_1/shape"
  op: "Const"
  attr {
    key: "_output_shapes"
    value {
      list {
        shape {
          dim {
            size: 2
          }
        }
      }
    }
  }
  attr {
    key: "dtype"
    value {
      type: DT_INT32
    }
  }
  attr {
    key: "value"
    value {
      tensor {
        dtype: DT_INT32
        tensor_shape {
          dim {
            size: 2
          }
        }
        tensor_content: "\377\377\377\377\001\000\000\000"
      }
    }
  }
}
node {
  name: "linear/linear_model/linear_model/linear_model/Pclass/weighted_sum/Reshape_1"
  op: "Reshape"
  input: "linear/linear_model/linear_model/linear_model/Pclass/weighted_sum/SparseFillEmptyRows/SparseFillEmptyRows:2"
  input: "linear/linear_model/linear_model/linear_model/Pclass/weighted_sum/Reshape_1/shape"
  attr {
    key: "T"
    value {
      type: DT_BOOL
    }
  }
  attr {
    key: "Tshape"
    value {
      type: DT_INT32
    }
  }
  attr {
    key: "_output_shapes"
    value {
      list {
        shape {
          dim {
            size: -1
          }
          dim {
            size: 1
          }
        }
      }
    }
  }
}
node {
  name: "linear/linear_model/linear_model/linear_model/Pclass/weighted_sum/Shape"
  op: "Shape"
  input: "linear/linear_model/linear_model/linear_model/Pclass/weighted_sum/embedding_lookup_sparse"
  attr {
    key: "T"
    value {
      type: DT_FLOAT
    }
  }
  attr {
    key: "_output_shapes"
    value {
      list {
        shape {
          dim {
            size: 2
          }
        }
      }
    }
  }
  attr {
    key: "out_type"
    value {
      type: DT_INT32
    }
  }
}
node {
  name: "linear/linear_model/linear_model/linear_model/Pclass/weighted_sum/strided_slice/stack"
  op: "Const"
  attr {
    key: "_output_shapes"
    value {
      list {
        shape {
          dim {
            size: 1
          }
        }
      }
    }
  }
  attr {
    key: "dtype"
    value {
      type: DT_INT32
    }
  }
  attr {
    key: "value"
    value {
      tensor {
        dtype: DT_INT32
        tensor_shape {
          dim {
            size: 1
          }
        }
        int_val: 1
      }
    }
  }
}
node {
  name: "linear/linear_model/linear_model/linear_model/Pclass/weighted_sum/strided_slice/stack_1"
  op: "Const"
  attr {
    key: "_output_shapes"
    value {
      list {
        shape {
          dim {
            size: 1
          }
        }
      }
    }
  }
  attr {
    key: "dtype"
    value {
      type: DT_INT32
    }
  }
  attr {
    key: "value"
    value {
      tensor {
        dtype: DT_INT32
        tensor_shape {
          dim {
            size: 1
          }
        }
        int_val: 2
      }
    }
  }
}
node {
  name: "linear/linear_model/linear_model/linear_model/Pclass/weighted_sum/strided_slice/stack_2"
  op: "Const"
  attr {
    key: "_output_shapes"
    value {
      list {
        shape {
          dim {
            size: 1
          }
        }
      }
    }
  }
  attr {
    key: "dtype"
    value {
      type: DT_INT32
    }
  }
  attr {
    key: "value"
    value {
      tensor {
        dtype: DT_INT32
        tensor_shape {
          dim {
            size: 1
          }
        }
        int_val: 1
      }
    }
  }
}
node {
  name: "linear/linear_model/linear_model/linear_model/Pclass/weighted_sum/strided_slice"
  op: "StridedSlice"
  input: "linear/linear_model/linear_model/linear_model/Pclass/weighted_sum/Shape"
  input: "linear/linear_model/linear_model/linear_model/Pclass/weighted_sum/strided_slice/stack"
  input: "linear/linear_model/linear_model/linear_model/Pclass/weighted_sum/strided_slice/stack_1"
  input: "linear/linear_model/linear_model/linear_model/Pclass/weighted_sum/strided_slice/stack_2"
  attr {
    key: "Index"
    value {
      type: DT_INT32
    }
  }
  attr {
    key: "T"
    value {
      type: DT_INT32
    }
  }
  attr {
    key: "_output_shapes"
    value {
      list {
        shape {
        }
      }
    }
  }
  attr {
    key: "begin_mask"
    value {
      i: 0
    }
  }
  attr {
    key: "ellipsis_mask"
    value {
      i: 0
    }
  }
  attr {
    key: "end_mask"
    value {
      i: 0
    }
  }
  attr {
    key: "new_axis_mask"
    value {
      i: 0
    }
  }
  attr {
    key: "shrink_axis_mask"
    value {
      i: 1
    }
  }
}
node {
  name: "linear/linear_model/linear_model/linear_model/Pclass/weighted_sum/stack/0"
  op: "Const"
  attr {
    key: "_output_shapes"
    value {
      list {
        shape {
        }
      }
    }
  }
  attr {
    key: "dtype"
    value {
      type: DT_INT32
    }
  }
  attr {
    key: "value"
    value {
      tensor {
        dtype: DT_INT32
        tensor_shape {
        }
        int_val: 1
      }
    }
  }
}
node {
  name: "linear/linear_model/linear_model/linear_model/Pclass/weighted_sum/stack"
  op: "Pack"
  input: "linear/linear_model/linear_model/linear_model/Pclass/weighted_sum/stack/0"
  input: "linear/linear_model/linear_model/linear_model/Pclass/weighted_sum/strided_slice"
  attr {
    key: "N"
    value {
      i: 2
    }
  }
  attr {
    key: "T"
    value {
      type: DT_INT32
    }
  }
  attr {
    key: "_output_shapes"
    value {
      list {
        shape {
          dim {
            size: 2
          }
        }
      }
    }
  }
  attr {
    key: "axis"
    value {
      i: 0
    }
  }
}
node {
  name: "linear/linear_model/linear_model/linear_model/Pclass/weighted_sum/Tile"
  op: "Tile"
  input: "linear/linear_model/linear_model/linear_model/Pclass/weighted_sum/Reshape_1"
  input: "linear/linear_model/linear_model/linear_model/Pclass/weighted_sum/stack"
  attr {
    key: "T"
    value {
      type: DT_BOOL
    }
  }
  attr {
    key: "Tmultiples"
    value {
      type: DT_INT32
    }
  }
  attr {
    key: "_output_shapes"
    value {
      list {
        shape {
          dim {
            size: -1
          }
          dim {
            size: -1
          }
        }
      }
    }
  }
}
node {
  name: "linear/linear_model/linear_model/linear_model/Pclass/weighted_sum/zeros_like"
  op: "ZerosLike"
  input: "linear/linear_model/linear_model/linear_model/Pclass/weighted_sum/embedding_lookup_sparse"
  attr {
    key: "T"
    value {
      type: DT_FLOAT
    }
  }
  attr {
    key: "_output_shapes"
    value {
      list {
        shape {
          dim {
            size: -1
          }
          dim {
            size: 1
          }
        }
      }
    }
  }
}
node {
  name: "linear/linear_model/linear_model/linear_model/Pclass/weighted_sum"
  op: "Select"
  input: "linear/linear_model/linear_model/linear_model/Pclass/weighted_sum/Tile"
  input: "linear/linear_model/linear_model/linear_model/Pclass/weighted_sum/zeros_like"
  input: "linear/linear_model/linear_model/linear_model/Pclass/weighted_sum/embedding_lookup_sparse"
  attr {
    key: "T"
    value {
      type: DT_FLOAT
    }
  }
  attr {
    key: "_output_shapes"
    value {
      list {
        shape {
          dim {
            size: -1
          }
          dim {
            size: 1
          }
        }
      }
    }
  }
}
node {
  name: "linear/linear_model/linear_model/linear_model/Pclass/weighted_sum/Cast_1"
  op: "Cast"
  input: "linear/linear_model/linear_model/linear_model/Pclass/SparseReshape:1"
  attr {
    key: "DstT"
    value {
      type: DT_INT32
    }
  }
  attr {
    key: "SrcT"
    value {
      type: DT_INT64
    }
  }
  attr {
    key: "Truncate"
    value {
      b: false
    }
  }
  attr {
    key: "_output_shapes"
    value {
      list {
        shape {
          dim {
            size: 2
          }
        }
      }
    }
  }
}
node {
  name: "linear/linear_model/linear_model/linear_model/Pclass/weighted_sum/Slice_1/begin"
  op: "Const"
  attr {
    key: "_output_shapes"
    value {
      list {
        shape {
          dim {
            size: 1
          }
        }
      }
    }
  }
  attr {
    key: "dtype"
    value {
      type: DT_INT32
    }
  }
  attr {
    key: "value"
    value {
      tensor {
        dtype: DT_INT32
        tensor_shape {
          dim {
            size: 1
          }
        }
        int_val: 0
      }
    }
  }
}
node {
  name: "linear/linear_model/linear_model/linear_model/Pclass/weighted_sum/Slice_1/size"
  op: "Const"
  attr {
    key: "_output_shapes"
    value {
      list {
        shape {
          dim {
            size: 1
          }
        }
      }
    }
  }
  attr {
    key: "dtype"
    value {
      type: DT_INT32
    }
  }
  attr {
    key: "value"
    value {
      tensor {
        dtype: DT_INT32
        tensor_shape {
          dim {
            size: 1
          }
        }
        int_val: 1
      }
    }
  }
}
node {
  name: "linear/linear_model/linear_model/linear_model/Pclass/weighted_sum/Slice_1"
  op: "Slice"
  input: "linear/linear_model/linear_model/linear_model/Pclass/weighted_sum/Cast_1"
  input: "linear/linear_model/linear_model/linear_model/Pclass/weighted_sum/Slice_1/begin"
  input: "linear/linear_model/linear_model/linear_model/Pclass/weighted_sum/Slice_1/size"
  attr {
    key: "Index"
    value {
      type: DT_INT32
    }
  }
  attr {
    key: "T"
    value {
      type: DT_INT32
    }
  }
  attr {
    key: "_output_shapes"
    value {
      list {
        shape {
          dim {
            size: 1
          }
        }
      }
    }
  }
}
node {
  name: "linear/linear_model/linear_model/linear_model/Pclass/weighted_sum/Shape_1"
  op: "Shape"
  input: "linear/linear_model/linear_model/linear_model/Pclass/weighted_sum"
  attr {
    key: "T"
    value {
      type: DT_FLOAT
    }
  }
  attr {
    key: "_output_shapes"
    value {
      list {
        shape {
          dim {
            size: 2
          }
        }
      }
    }
  }
  attr {
    key: "out_type"
    value {
      type: DT_INT32
    }
  }
}
node {
  name: "linear/linear_model/linear_model/linear_model/Pclass/weighted_sum/Slice_2/begin"
  op: "Const"
  attr {
    key: "_output_shapes"
    value {
      list {
        shape {
          dim {
            size: 1
          }
        }
      }
    }
  }
  attr {
    key: "dtype"
    value {
      type: DT_INT32
    }
  }
  attr {
    key: "value"
    value {
      tensor {
        dtype: DT_INT32
        tensor_shape {
          dim {
            size: 1
          }
        }
        int_val: 1
      }
    }
  }
}
node {
  name: "linear/linear_model/linear_model/linear_model/Pclass/weighted_sum/Slice_2/size"
  op: "Const"
  attr {
    key: "_output_shapes"
    value {
      list {
        shape {
          dim {
            size: 1
          }
        }
      }
    }
  }
  attr {
    key: "dtype"
    value {
      type: DT_INT32
    }
  }
  attr {
    key: "value"
    value {
      tensor {
        dtype: DT_INT32
        tensor_shape {
          dim {
            size: 1
          }
        }
        int_val: -1
      }
    }
  }
}
node {
  name: "linear/linear_model/linear_model/linear_model/Pclass/weighted_sum/Slice_2"
  op: "Slice"
  input: "linear/linear_model/linear_model/linear_model/Pclass/weighted_sum/Shape_1"
  input: "linear/linear_model/linear_model/linear_model/Pclass/weighted_sum/Slice_2/begin"
  input: "linear/linear_model/linear_model/linear_model/Pclass/weighted_sum/Slice_2/size"
  attr {
    key: "Index"
    value {
      type: DT_INT32
    }
  }
  attr {
    key: "T"
    value {
      type: DT_INT32
    }
  }
  attr {
    key: "_output_shapes"
    value {
      list {
        shape {
          dim {
            size: 1
          }
        }
      }
    }
  }
}
node {
  name: "linear/linear_model/linear_model/linear_model/Pclass/weighted_sum/concat/axis"
  op: "Const"
  attr {
    key: "_output_shapes"
    value {
      list {
        shape {
        }
      }
    }
  }
  attr {
    key: "dtype"
    value {
      type: DT_INT32
    }
  }
  attr {
    key: "value"
    value {
      tensor {
        dtype: DT_INT32
        tensor_shape {
        }
        int_val: 0
      }
    }
  }
}
node {
  name: "linear/linear_model/linear_model/linear_model/Pclass/weighted_sum/concat"
  op: "ConcatV2"
  input: "linear/linear_model/linear_model/linear_model/Pclass/weighted_sum/Slice_1"
  input: "linear/linear_model/linear_model/linear_model/Pclass/weighted_sum/Slice_2"
  input: "linear/linear_model/linear_model/linear_model/Pclass/weighted_sum/concat/axis"
  attr {
    key: "N"
    value {
      i: 2
    }
  }
  attr {
    key: "T"
    value {
      type: DT_INT32
    }
  }
  attr {
    key: "Tidx"
    value {
      type: DT_INT32
    }
  }
  attr {
    key: "_output_shapes"
    value {
      list {
        shape {
          dim {
            size: 2
          }
        }
      }
    }
  }
}
node {
  name: "linear/linear_model/linear_model/linear_model/Pclass/weighted_sum/Reshape_2"
  op: "Reshape"
  input: "linear/linear_model/linear_model/linear_model/Pclass/weighted_sum"
  input: "linear/linear_model/linear_model/linear_model/Pclass/weighted_sum/concat"
  attr {
    key: "T"
    value {
      type: DT_FLOAT
    }
  }
  attr {
    key: "Tshape"
    value {
      type: DT_INT32
    }
  }
  attr {
    key: "_output_shapes"
    value {
      list {
        shape {
          dim {
            size: -1
          }
          dim {
            size: 1
          }
        }
      }
    }
  }
}
node {
  name: "linear/linear_model/linear_model/linear_model/Sex/ExpandDims/dim"
  op: "Const"
  attr {
    key: "_output_shapes"
    value {
      list {
        shape {
        }
      }
    }
  }
  attr {
    key: "dtype"
    value {
      type: DT_INT32
    }
  }
  attr {
    key: "value"
    value {
      tensor {
        dtype: DT_INT32
        tensor_shape {
        }
        int_val: -1
      }
    }
  }
}
node {
  name: "linear/linear_model/linear_model/linear_model/Sex/ExpandDims"
  op: "ExpandDims"
  input: "IteratorGetNext:3"
  input: "linear/linear_model/linear_model/linear_model/Sex/ExpandDims/dim"
  attr {
    key: "T"
    value {
      type: DT_INT64
    }
  }
  attr {
    key: "Tdim"
    value {
      type: DT_INT32
    }
  }
  attr {
    key: "_output_shapes"
    value {
      list {
        shape {
          dim {
            size: -1
          }
          dim {
            size: 1
          }
        }
      }
    }
  }
}
node {
  name: "linear/linear_model/linear_model/linear_model/Sex/to_sparse_input/ignore_value/x"
  op: "Const"
  attr {
    key: "_output_shapes"
    value {
      list {
        shape {
        }
      }
    }
  }
  attr {
    key: "dtype"
    value {
      type: DT_INT32
    }
  }
  attr {
    key: "value"
    value {
      tensor {
        dtype: DT_INT32
        tensor_shape {
        }
        int_val: -1
      }
    }
  }
}
node {
  name: "linear/linear_model/linear_model/linear_model/Sex/to_sparse_input/ignore_value"
  op: "Cast"
  input: "linear/linear_model/linear_model/linear_model/Sex/to_sparse_input/ignore_value/x"
  attr {
    key: "DstT"
    value {
      type: DT_INT64
    }
  }
  attr {
    key: "SrcT"
    value {
      type: DT_INT32
    }
  }
  attr {
    key: "Truncate"
    value {
      b: false
    }
  }
  attr {
    key: "_output_shapes"
    value {
      list {
        shape {
        }
      }
    }
  }
}
node {
  name: "linear/linear_model/linear_model/linear_model/Sex/to_sparse_input/NotEqual"
  op: "NotEqual"
  input: "linear/linear_model/linear_model/linear_model/Sex/ExpandDims"
  input: "linear/linear_model/linear_model/linear_model/Sex/to_sparse_input/ignore_value"
  attr {
    key: "T"
    value {
      type: DT_INT64
    }
  }
  attr {
    key: "_output_shapes"
    value {
      list {
        shape {
          dim {
            size: -1
          }
          dim {
            size: 1
          }
        }
      }
    }
  }
}
node {
  name: "linear/linear_model/linear_model/linear_model/Sex/to_sparse_input/indices"
  op: "Where"
  input: "linear/linear_model/linear_model/linear_model/Sex/to_sparse_input/NotEqual"
  attr {
    key: "T"
    value {
      type: DT_BOOL
    }
  }
  attr {
    key: "_output_shapes"
    value {
      list {
        shape {
          dim {
            size: -1
          }
          dim {
            size: 2
          }
        }
      }
    }
  }
}
node {
  name: "linear/linear_model/linear_model/linear_model/Sex/to_sparse_input/values"
  op: "GatherNd"
  input: "linear/linear_model/linear_model/linear_model/Sex/ExpandDims"
  input: "linear/linear_model/linear_model/linear_model/Sex/to_sparse_input/indices"
  attr {
    key: "Tindices"
    value {
      type: DT_INT64
    }
  }
  attr {
    key: "Tparams"
    value {
      type: DT_INT64
    }
  }
  attr {
    key: "_output_shapes"
    value {
      list {
        shape {
          dim {
            size: -1
          }
        }
      }
    }
  }
}
node {
  name: "linear/linear_model/linear_model/linear_model/Sex/to_sparse_input/dense_shape"
  op: "Shape"
  input: "linear/linear_model/linear_model/linear_model/Sex/ExpandDims"
  attr {
    key: "T"
    value {
      type: DT_INT64
    }
  }
  attr {
    key: "_output_shapes"
    value {
      list {
        shape {
          dim {
            size: 2
          }
        }
      }
    }
  }
  attr {
    key: "out_type"
    value {
      type: DT_INT64
    }
  }
}
node {
  name: "linear/linear_model/linear_model/linear_model/Sex/num_buckets/x"
  op: "Const"
  attr {
    key: "_output_shapes"
    value {
      list {
        shape {
        }
      }
    }
  }
  attr {
    key: "dtype"
    value {
      type: DT_INT32
    }
  }
  attr {
    key: "value"
    value {
      tensor {
        dtype: DT_INT32
        tensor_shape {
        }
        int_val: 2
      }
    }
  }
}
node {
  name: "linear/linear_model/linear_model/linear_model/Sex/num_buckets"
  op: "Cast"
  input: "linear/linear_model/linear_model/linear_model/Sex/num_buckets/x"
  attr {
    key: "DstT"
    value {
      type: DT_INT64
    }
  }
  attr {
    key: "SrcT"
    value {
      type: DT_INT32
    }
  }
  attr {
    key: "Truncate"
    value {
      b: false
    }
  }
  attr {
    key: "_output_shapes"
    value {
      list {
        shape {
        }
      }
    }
  }
}
node {
  name: "linear/linear_model/linear_model/linear_model/Sex/zero/x"
  op: "Const"
  attr {
    key: "_output_shapes"
    value {
      list {
        shape {
        }
      }
    }
  }
  attr {
    key: "dtype"
    value {
      type: DT_INT32
    }
  }
  attr {
    key: "value"
    value {
      tensor {
        dtype: DT_INT32
        tensor_shape {
        }
        int_val: 0
      }
    }
  }
}
node {
  name: "linear/linear_model/linear_model/linear_model/Sex/zero"
  op: "Cast"
  input: "linear/linear_model/linear_model/linear_model/Sex/zero/x"
  attr {
    key: "DstT"
    value {
      type: DT_INT64
    }
  }
  attr {
    key: "SrcT"
    value {
      type: DT_INT32
    }
  }
  attr {
    key: "Truncate"
    value {
      b: false
    }
  }
  attr {
    key: "_output_shapes"
    value {
      list {
        shape {
        }
      }
    }
  }
}
node {
  name: "linear/linear_model/linear_model/linear_model/Sex/assert_less_than_num_buckets/Less"
  op: "Less"
  input: "linear/linear_model/linear_model/linear_model/Sex/to_sparse_input/values"
  input: "linear/linear_model/linear_model/linear_model/Sex/num_buckets"
  attr {
    key: "T"
    value {
      type: DT_INT64
    }
  }
  attr {
    key: "_output_shapes"
    value {
      list {
        shape {
          dim {
            size: -1
          }
        }
      }
    }
  }
}
node {
  name: "linear/linear_model/linear_model/linear_model/Sex/assert_less_than_num_buckets/Const"
  op: "Const"
  attr {
    key: "_output_shapes"
    value {
      list {
        shape {
          dim {
            size: 1
          }
        }
      }
    }
  }
  attr {
    key: "dtype"
    value {
      type: DT_INT32
    }
  }
  attr {
    key: "value"
    value {
      tensor {
        dtype: DT_INT32
        tensor_shape {
          dim {
            size: 1
          }
        }
        int_val: 0
      }
    }
  }
}
node {
  name: "linear/linear_model/linear_model/linear_model/Sex/assert_less_than_num_buckets/All"
  op: "All"
  input: "linear/linear_model/linear_model/linear_model/Sex/assert_less_than_num_buckets/Less"
  input: "linear/linear_model/linear_model/linear_model/Sex/assert_less_than_num_buckets/Const"
  attr {
    key: "Tidx"
    value {
      type: DT_INT32
    }
  }
  attr {
    key: "_output_shapes"
    value {
      list {
        shape {
        }
      }
    }
  }
  attr {
    key: "keep_dims"
    value {
      b: false
    }
  }
}
node {
  name: "linear/linear_model/linear_model/linear_model/Sex/assert_less_than_num_buckets/Assert/AssertGuard/Switch"
  op: "Switch"
  input: "linear/linear_model/linear_model/linear_model/Sex/assert_less_than_num_buckets/All"
  input: "linear/linear_model/linear_model/linear_model/Sex/assert_less_than_num_buckets/All"
  attr {
    key: "T"
    value {
      type: DT_BOOL
    }
  }
  attr {
    key: "_output_shapes"
    value {
      list {
        shape {
        }
        shape {
        }
      }
    }
  }
}
node {
  name: "linear/linear_model/linear_model/linear_model/Sex/assert_less_than_num_buckets/Assert/AssertGuard/switch_t"
  op: "Identity"
  input: "linear/linear_model/linear_model/linear_model/Sex/assert_less_than_num_buckets/Assert/AssertGuard/Switch:1"
  attr {
    key: "T"
    value {
      type: DT_BOOL
    }
  }
  attr {
    key: "_output_shapes"
    value {
      list {
        shape {
        }
      }
    }
  }
}
node {
  name: "linear/linear_model/linear_model/linear_model/Sex/assert_less_than_num_buckets/Assert/AssertGuard/switch_f"
  op: "Identity"
  input: "linear/linear_model/linear_model/linear_model/Sex/assert_less_than_num_buckets/Assert/AssertGuard/Switch"
  attr {
    key: "T"
    value {
      type: DT_BOOL
    }
  }
  attr {
    key: "_output_shapes"
    value {
      list {
        shape {
        }
      }
    }
  }
}
node {
  name: "linear/linear_model/linear_model/linear_model/Sex/assert_less_than_num_buckets/Assert/AssertGuard/pred_id"
  op: "Identity"
  input: "linear/linear_model/linear_model/linear_model/Sex/assert_less_than_num_buckets/All"
  attr {
    key: "T"
    value {
      type: DT_BOOL
    }
  }
  attr {
    key: "_output_shapes"
    value {
      list {
        shape {
        }
      }
    }
  }
}
node {
  name: "linear/linear_model/linear_model/linear_model/Sex/assert_less_than_num_buckets/Assert/AssertGuard/NoOp"
  op: "NoOp"
  input: "^linear/linear_model/linear_model/linear_model/Sex/assert_less_than_num_buckets/Assert/AssertGuard/switch_t"
}
node {
  name: "linear/linear_model/linear_model/linear_model/Sex/assert_less_than_num_buckets/Assert/AssertGuard/control_dependency"
  op: "Identity"
  input: "linear/linear_model/linear_model/linear_model/Sex/assert_less_than_num_buckets/Assert/AssertGuard/switch_t"
  input: "^linear/linear_model/linear_model/linear_model/Sex/assert_less_than_num_buckets/Assert/AssertGuard/NoOp"
  attr {
    key: "T"
    value {
      type: DT_BOOL
    }
  }
  attr {
    key: "_class"
    value {
      list {
        s: "loc:@linear/linear_model/linear_model/linear_model/Sex/assert_less_than_num_buckets/Assert/AssertGuard/switch_t"
      }
    }
  }
  attr {
    key: "_output_shapes"
    value {
      list {
        shape {
        }
      }
    }
  }
}
node {
  name: "linear/linear_model/linear_model/linear_model/Sex/assert_less_than_num_buckets/Assert/AssertGuard/Assert"
  op: "Assert"
  input: "linear/linear_model/linear_model/linear_model/Sex/assert_less_than_num_buckets/Assert/AssertGuard/Assert/Switch"
  input: "linear/linear_model/linear_model/linear_model/Sex/assert_less_than_num_buckets/Assert/AssertGuard/Assert/Switch_1"
  input: "linear/linear_model/linear_model/linear_model/Sex/assert_less_than_num_buckets/Assert/AssertGuard/Assert/Switch_2"
  attr {
    key: "T"
    value {
      list {
        type: DT_INT64
        type: DT_INT64
      }
    }
  }
  attr {
    key: "summarize"
    value {
      i: 3
    }
  }
}
node {
  name: "linear/linear_model/linear_model/linear_model/Sex/assert_less_than_num_buckets/Assert/AssertGuard/Assert/Switch"
  op: "Switch"
  input: "linear/linear_model/linear_model/linear_model/Sex/assert_less_than_num_buckets/All"
  input: "linear/linear_model/linear_model/linear_model/Sex/assert_less_than_num_buckets/Assert/AssertGuard/pred_id"
  attr {
    key: "T"
    value {
      type: DT_BOOL
    }
  }
  attr {
    key: "_class"
    value {
      list {
        s: "loc:@linear/linear_model/linear_model/linear_model/Sex/assert_less_than_num_buckets/All"
      }
    }
  }
  attr {
    key: "_output_shapes"
    value {
      list {
        shape {
        }
        shape {
        }
      }
    }
  }
}
node {
  name: "linear/linear_model/linear_model/linear_model/Sex/assert_less_than_num_buckets/Assert/AssertGuard/Assert/Switch_1"
  op: "Switch"
  input: "linear/linear_model/linear_model/linear_model/Sex/to_sparse_input/values"
  input: "linear/linear_model/linear_model/linear_model/Sex/assert_less_than_num_buckets/Assert/AssertGuard/pred_id"
  attr {
    key: "T"
    value {
      type: DT_INT64
    }
  }
  attr {
    key: "_class"
    value {
      list {
        s: "loc:@linear/linear_model/linear_model/linear_model/Sex/to_sparse_input/values"
      }
    }
  }
  attr {
    key: "_output_shapes"
    value {
      list {
        shape {
          dim {
            size: -1
          }
        }
        shape {
          dim {
            size: -1
          }
        }
      }
    }
  }
}
node {
  name: "linear/linear_model/linear_model/linear_model/Sex/assert_less_than_num_buckets/Assert/AssertGuard/Assert/Switch_2"
  op: "Switch"
  input: "linear/linear_model/linear_model/linear_model/Sex/num_buckets"
  input: "linear/linear_model/linear_model/linear_model/Sex/assert_less_than_num_buckets/Assert/AssertGuard/pred_id"
  attr {
    key: "T"
    value {
      type: DT_INT64
    }
  }
  attr {
    key: "_class"
    value {
      list {
        s: "loc:@linear/linear_model/linear_model/linear_model/Sex/num_buckets"
      }
    }
  }
  attr {
    key: "_output_shapes"
    value {
      list {
        shape {
        }
        shape {
        }
      }
    }
  }
}
node {
  name: "linear/linear_model/linear_model/linear_model/Sex/assert_less_than_num_buckets/Assert/AssertGuard/control_dependency_1"
  op: "Identity"
  input: "linear/linear_model/linear_model/linear_model/Sex/assert_less_than_num_buckets/Assert/AssertGuard/switch_f"
  input: "^linear/linear_model/linear_model/linear_model/Sex/assert_less_than_num_buckets/Assert/AssertGuard/Assert"
  attr {
    key: "T"
    value {
      type: DT_BOOL
    }
  }
  attr {
    key: "_class"
    value {
      list {
        s: "loc:@linear/linear_model/linear_model/linear_model/Sex/assert_less_than_num_buckets/Assert/AssertGuard/switch_f"
      }
    }
  }
  attr {
    key: "_output_shapes"
    value {
      list {
        shape {
        }
      }
    }
  }
}
node {
  name: "linear/linear_model/linear_model/linear_model/Sex/assert_less_than_num_buckets/Assert/AssertGuard/Merge"
  op: "Merge"
  input: "linear/linear_model/linear_model/linear_model/Sex/assert_less_than_num_buckets/Assert/AssertGuard/control_dependency_1"
  input: "linear/linear_model/linear_model/linear_model/Sex/assert_less_than_num_buckets/Assert/AssertGuard/control_dependency"
  attr {
    key: "N"
    value {
      i: 2
    }
  }
  attr {
    key: "T"
    value {
      type: DT_BOOL
    }
  }
  attr {
    key: "_output_shapes"
    value {
      list {
        shape {
        }
        shape {
        }
      }
    }
  }
}
node {
  name: "linear/linear_model/linear_model/linear_model/Sex/assert_greater_or_equal_0/GreaterEqual"
  op: "GreaterEqual"
  input: "linear/linear_model/linear_model/linear_model/Sex/to_sparse_input/values"
  input: "linear/linear_model/linear_model/linear_model/Sex/zero"
  attr {
    key: "T"
    value {
      type: DT_INT64
    }
  }
  attr {
    key: "_output_shapes"
    value {
      list {
        shape {
          dim {
            size: -1
          }
        }
      }
    }
  }
}
node {
  name: "linear/linear_model/linear_model/linear_model/Sex/assert_greater_or_equal_0/Const"
  op: "Const"
  attr {
    key: "_output_shapes"
    value {
      list {
        shape {
          dim {
            size: 1
          }
        }
      }
    }
  }
  attr {
    key: "dtype"
    value {
      type: DT_INT32
    }
  }
  attr {
    key: "value"
    value {
      tensor {
        dtype: DT_INT32
        tensor_shape {
          dim {
            size: 1
          }
        }
        int_val: 0
      }
    }
  }
}
node {
  name: "linear/linear_model/linear_model/linear_model/Sex/assert_greater_or_equal_0/All"
  op: "All"
  input: "linear/linear_model/linear_model/linear_model/Sex/assert_greater_or_equal_0/GreaterEqual"
  input: "linear/linear_model/linear_model/linear_model/Sex/assert_greater_or_equal_0/Const"
  attr {
    key: "Tidx"
    value {
      type: DT_INT32
    }
  }
  attr {
    key: "_output_shapes"
    value {
      list {
        shape {
        }
      }
    }
  }
  attr {
    key: "keep_dims"
    value {
      b: false
    }
  }
}
node {
  name: "linear/linear_model/linear_model/linear_model/Sex/assert_greater_or_equal_0/Assert/AssertGuard/Switch"
  op: "Switch"
  input: "linear/linear_model/linear_model/linear_model/Sex/assert_greater_or_equal_0/All"
  input: "linear/linear_model/linear_model/linear_model/Sex/assert_greater_or_equal_0/All"
  attr {
    key: "T"
    value {
      type: DT_BOOL
    }
  }
  attr {
    key: "_output_shapes"
    value {
      list {
        shape {
        }
        shape {
        }
      }
    }
  }
}
node {
  name: "linear/linear_model/linear_model/linear_model/Sex/assert_greater_or_equal_0/Assert/AssertGuard/switch_t"
  op: "Identity"
  input: "linear/linear_model/linear_model/linear_model/Sex/assert_greater_or_equal_0/Assert/AssertGuard/Switch:1"
  attr {
    key: "T"
    value {
      type: DT_BOOL
    }
  }
  attr {
    key: "_output_shapes"
    value {
      list {
        shape {
        }
      }
    }
  }
}
node {
  name: "linear/linear_model/linear_model/linear_model/Sex/assert_greater_or_equal_0/Assert/AssertGuard/switch_f"
  op: "Identity"
  input: "linear/linear_model/linear_model/linear_model/Sex/assert_greater_or_equal_0/Assert/AssertGuard/Switch"
  attr {
    key: "T"
    value {
      type: DT_BOOL
    }
  }
  attr {
    key: "_output_shapes"
    value {
      list {
        shape {
        }
      }
    }
  }
}
node {
  name: "linear/linear_model/linear_model/linear_model/Sex/assert_greater_or_equal_0/Assert/AssertGuard/pred_id"
  op: "Identity"
  input: "linear/linear_model/linear_model/linear_model/Sex/assert_greater_or_equal_0/All"
  attr {
    key: "T"
    value {
      type: DT_BOOL
    }
  }
  attr {
    key: "_output_shapes"
    value {
      list {
        shape {
        }
      }
    }
  }
}
node {
  name: "linear/linear_model/linear_model/linear_model/Sex/assert_greater_or_equal_0/Assert/AssertGuard/NoOp"
  op: "NoOp"
  input: "^linear/linear_model/linear_model/linear_model/Sex/assert_greater_or_equal_0/Assert/AssertGuard/switch_t"
}
node {
  name: "linear/linear_model/linear_model/linear_model/Sex/assert_greater_or_equal_0/Assert/AssertGuard/control_dependency"
  op: "Identity"
  input: "linear/linear_model/linear_model/linear_model/Sex/assert_greater_or_equal_0/Assert/AssertGuard/switch_t"
  input: "^linear/linear_model/linear_model/linear_model/Sex/assert_greater_or_equal_0/Assert/AssertGuard/NoOp"
  attr {
    key: "T"
    value {
      type: DT_BOOL
    }
  }
  attr {
    key: "_class"
    value {
      list {
        s: "loc:@linear/linear_model/linear_model/linear_model/Sex/assert_greater_or_equal_0/Assert/AssertGuard/switch_t"
      }
    }
  }
  attr {
    key: "_output_shapes"
    value {
      list {
        shape {
        }
      }
    }
  }
}
node {
  name: "linear/linear_model/linear_model/linear_model/Sex/assert_greater_or_equal_0/Assert/AssertGuard/Assert"
  op: "Assert"
  input: "linear/linear_model/linear_model/linear_model/Sex/assert_greater_or_equal_0/Assert/AssertGuard/Assert/Switch"
  input: "linear/linear_model/linear_model/linear_model/Sex/assert_greater_or_equal_0/Assert/AssertGuard/Assert/Switch_1"
  attr {
    key: "T"
    value {
      list {
        type: DT_INT64
      }
    }
  }
  attr {
    key: "summarize"
    value {
      i: 3
    }
  }
}
node {
  name: "linear/linear_model/linear_model/linear_model/Sex/assert_greater_or_equal_0/Assert/AssertGuard/Assert/Switch"
  op: "Switch"
  input: "linear/linear_model/linear_model/linear_model/Sex/assert_greater_or_equal_0/All"
  input: "linear/linear_model/linear_model/linear_model/Sex/assert_greater_or_equal_0/Assert/AssertGuard/pred_id"
  attr {
    key: "T"
    value {
      type: DT_BOOL
    }
  }
  attr {
    key: "_class"
    value {
      list {
        s: "loc:@linear/linear_model/linear_model/linear_model/Sex/assert_greater_or_equal_0/All"
      }
    }
  }
  attr {
    key: "_output_shapes"
    value {
      list {
        shape {
        }
        shape {
        }
      }
    }
  }
}
node {
  name: "linear/linear_model/linear_model/linear_model/Sex/assert_greater_or_equal_0/Assert/AssertGuard/Assert/Switch_1"
  op: "Switch"
  input: "linear/linear_model/linear_model/linear_model/Sex/to_sparse_input/values"
  input: "linear/linear_model/linear_model/linear_model/Sex/assert_greater_or_equal_0/Assert/AssertGuard/pred_id"
  attr {
    key: "T"
    value {
      type: DT_INT64
    }
  }
  attr {
    key: "_class"
    value {
      list {
        s: "loc:@linear/linear_model/linear_model/linear_model/Sex/to_sparse_input/values"
      }
    }
  }
  attr {
    key: "_output_shapes"
    value {
      list {
        shape {
          dim {
            size: -1
          }
        }
        shape {
          dim {
            size: -1
          }
        }
      }
    }
  }
}
node {
  name: "linear/linear_model/linear_model/linear_model/Sex/assert_greater_or_equal_0/Assert/AssertGuard/control_dependency_1"
  op: "Identity"
  input: "linear/linear_model/linear_model/linear_model/Sex/assert_greater_or_equal_0/Assert/AssertGuard/switch_f"
  input: "^linear/linear_model/linear_model/linear_model/Sex/assert_greater_or_equal_0/Assert/AssertGuard/Assert"
  attr {
    key: "T"
    value {
      type: DT_BOOL
    }
  }
  attr {
    key: "_class"
    value {
      list {
        s: "loc:@linear/linear_model/linear_model/linear_model/Sex/assert_greater_or_equal_0/Assert/AssertGuard/switch_f"
      }
    }
  }
  attr {
    key: "_output_shapes"
    value {
      list {
        shape {
        }
      }
    }
  }
}
node {
  name: "linear/linear_model/linear_model/linear_model/Sex/assert_greater_or_equal_0/Assert/AssertGuard/Merge"
  op: "Merge"
  input: "linear/linear_model/linear_model/linear_model/Sex/assert_greater_or_equal_0/Assert/AssertGuard/control_dependency_1"
  input: "linear/linear_model/linear_model/linear_model/Sex/assert_greater_or_equal_0/Assert/AssertGuard/control_dependency"
  attr {
    key: "N"
    value {
      i: 2
    }
  }
  attr {
    key: "T"
    value {
      type: DT_BOOL
    }
  }
  attr {
    key: "_output_shapes"
    value {
      list {
        shape {
        }
        shape {
        }
      }
    }
  }
}
node {
  name: "linear/linear_model/linear_model/linear_model/Sex/Identity"
  op: "Identity"
  input: "linear/linear_model/linear_model/linear_model/Sex/to_sparse_input/values"
  input: "^linear/linear_model/linear_model/linear_model/Sex/assert_greater_or_equal_0/Assert/AssertGuard/Merge"
  input: "^linear/linear_model/linear_model/linear_model/Sex/assert_less_than_num_buckets/Assert/AssertGuard/Merge"
  attr {
    key: "T"
    value {
      type: DT_INT64
    }
  }
  attr {
    key: "_output_shapes"
    value {
      list {
        shape {
          dim {
            size: -1
          }
        }
      }
    }
  }
}
node {
  name: "linear/linear_model/linear_model/linear_model/Sex/Shape/Cast"
  op: "Cast"
  input: "linear/linear_model/linear_model/linear_model/Sex/to_sparse_input/dense_shape"
  attr {
    key: "DstT"
    value {
      type: DT_INT32
    }
  }
  attr {
    key: "SrcT"
    value {
      type: DT_INT64
    }
  }
  attr {
    key: "Truncate"
    value {
      b: false
    }
  }
  attr {
    key: "_output_shapes"
    value {
      list {
        shape {
          dim {
            size: 2
          }
        }
      }
    }
  }
}
node {
  name: "linear/linear_model/linear_model/linear_model/Sex/strided_slice/stack"
  op: "Const"
  attr {
    key: "_output_shapes"
    value {
      list {
        shape {
          dim {
            size: 1
          }
        }
      }
    }
  }
  attr {
    key: "dtype"
    value {
      type: DT_INT32
    }
  }
  attr {
    key: "value"
    value {
      tensor {
        dtype: DT_INT32
        tensor_shape {
          dim {
            size: 1
          }
        }
        int_val: 0
      }
    }
  }
}
node {
  name: "linear/linear_model/linear_model/linear_model/Sex/strided_slice/stack_1"
  op: "Const"
  attr {
    key: "_output_shapes"
    value {
      list {
        shape {
          dim {
            size: 1
          }
        }
      }
    }
  }
  attr {
    key: "dtype"
    value {
      type: DT_INT32
    }
  }
  attr {
    key: "value"
    value {
      tensor {
        dtype: DT_INT32
        tensor_shape {
          dim {
            size: 1
          }
        }
        int_val: 1
      }
    }
  }
}
node {
  name: "linear/linear_model/linear_model/linear_model/Sex/strided_slice/stack_2"
  op: "Const"
  attr {
    key: "_output_shapes"
    value {
      list {
        shape {
          dim {
            size: 1
          }
        }
      }
    }
  }
  attr {
    key: "dtype"
    value {
      type: DT_INT32
    }
  }
  attr {
    key: "value"
    value {
      tensor {
        dtype: DT_INT32
        tensor_shape {
          dim {
            size: 1
          }
        }
        int_val: 1
      }
    }
  }
}
node {
  name: "linear/linear_model/linear_model/linear_model/Sex/strided_slice"
  op: "StridedSlice"
  input: "linear/linear_model/linear_model/linear_model/Sex/Shape/Cast"
  input: "linear/linear_model/linear_model/linear_model/Sex/strided_slice/stack"
  input: "linear/linear_model/linear_model/linear_model/Sex/strided_slice/stack_1"
  input: "linear/linear_model/linear_model/linear_model/Sex/strided_slice/stack_2"
  attr {
    key: "Index"
    value {
      type: DT_INT32
    }
  }
  attr {
    key: "T"
    value {
      type: DT_INT32
    }
  }
  attr {
    key: "_output_shapes"
    value {
      list {
        shape {
        }
      }
    }
  }
  attr {
    key: "begin_mask"
    value {
      i: 0
    }
  }
  attr {
    key: "ellipsis_mask"
    value {
      i: 0
    }
  }
  attr {
    key: "end_mask"
    value {
      i: 0
    }
  }
  attr {
    key: "new_axis_mask"
    value {
      i: 0
    }
  }
  attr {
    key: "shrink_axis_mask"
    value {
      i: 1
    }
  }
}
node {
  name: "linear/linear_model/linear_model/linear_model/Sex/Cast/x/1"
  op: "Const"
  attr {
    key: "_output_shapes"
    value {
      list {
        shape {
        }
      }
    }
  }
  attr {
    key: "dtype"
    value {
      type: DT_INT32
    }
  }
  attr {
    key: "value"
    value {
      tensor {
        dtype: DT_INT32
        tensor_shape {
        }
        int_val: -1
      }
    }
  }
}
node {
  name: "linear/linear_model/linear_model/linear_model/Sex/Cast/x"
  op: "Pack"
  input: "linear/linear_model/linear_model/linear_model/Sex/strided_slice"
  input: "linear/linear_model/linear_model/linear_model/Sex/Cast/x/1"
  attr {
    key: "N"
    value {
      i: 2
    }
  }
  attr {
    key: "T"
    value {
      type: DT_INT32
    }
  }
  attr {
    key: "_output_shapes"
    value {
      list {
        shape {
          dim {
            size: 2
          }
        }
      }
    }
  }
  attr {
    key: "axis"
    value {
      i: 0
    }
  }
}
node {
  name: "linear/linear_model/linear_model/linear_model/Sex/Cast"
  op: "Cast"
  input: "linear/linear_model/linear_model/linear_model/Sex/Cast/x"
  attr {
    key: "DstT"
    value {
      type: DT_INT64
    }
  }
  attr {
    key: "SrcT"
    value {
      type: DT_INT32
    }
  }
  attr {
    key: "Truncate"
    value {
      b: false
    }
  }
  attr {
    key: "_output_shapes"
    value {
      list {
        shape {
          dim {
            size: 2
          }
        }
      }
    }
  }
}
node {
  name: "linear/linear_model/linear_model/linear_model/Sex/SparseReshape"
  op: "SparseReshape"
  input: "linear/linear_model/linear_model/linear_model/Sex/to_sparse_input/indices"
  input: "linear/linear_model/linear_model/linear_model/Sex/to_sparse_input/dense_shape"
  input: "linear/linear_model/linear_model/linear_model/Sex/Cast"
  attr {
    key: "_output_shapes"
    value {
      list {
        shape {
          dim {
            size: -1
          }
          dim {
            size: 2
          }
        }
        shape {
          dim {
            size: 2
          }
        }
      }
    }
  }
}
node {
  name: "linear/linear_model/linear_model/linear_model/Sex/SparseReshape/Identity"
  op: "Identity"
  input: "linear/linear_model/linear_model/linear_model/Sex/Identity"
  attr {
    key: "T"
    value {
      type: DT_INT64
    }
  }
  attr {
    key: "_output_shapes"
    value {
      list {
        shape {
          dim {
            size: -1
          }
        }
      }
    }
  }
}
node {
  name: "linear/linear_model/linear_model/linear_model/Sex/weighted_sum/Slice/begin"
  op: "Const"
  attr {
    key: "_output_shapes"
    value {
      list {
        shape {
          dim {
            size: 1
          }
        }
      }
    }
  }
  attr {
    key: "dtype"
    value {
      type: DT_INT32
    }
  }
  attr {
    key: "value"
    value {
      tensor {
        dtype: DT_INT32
        tensor_shape {
          dim {
            size: 1
          }
        }
        int_val: 0
      }
    }
  }
}
node {
  name: "linear/linear_model/linear_model/linear_model/Sex/weighted_sum/Slice/size"
  op: "Const"
  attr {
    key: "_output_shapes"
    value {
      list {
        shape {
          dim {
            size: 1
          }
        }
      }
    }
  }
  attr {
    key: "dtype"
    value {
      type: DT_INT32
    }
  }
  attr {
    key: "value"
    value {
      tensor {
        dtype: DT_INT32
        tensor_shape {
          dim {
            size: 1
          }
        }
        int_val: 1
      }
    }
  }
}
node {
  name: "linear/linear_model/linear_model/linear_model/Sex/weighted_sum/Slice"
  op: "Slice"
  input: "linear/linear_model/linear_model/linear_model/Sex/SparseReshape:1"
  input: "linear/linear_model/linear_model/linear_model/Sex/weighted_sum/Slice/begin"
  input: "linear/linear_model/linear_model/linear_model/Sex/weighted_sum/Slice/size"
  attr {
    key: "Index"
    value {
      type: DT_INT32
    }
  }
  attr {
    key: "T"
    value {
      type: DT_INT64
    }
  }
  attr {
    key: "_output_shapes"
    value {
      list {
        shape {
          dim {
            size: 1
          }
        }
      }
    }
  }
}
node {
  name: "linear/linear_model/linear_model/linear_model/Sex/weighted_sum/Const"
  op: "Const"
  attr {
    key: "_output_shapes"
    value {
      list {
        shape {
          dim {
            size: 1
          }
        }
      }
    }
  }
  attr {
    key: "dtype"
    value {
      type: DT_INT32
    }
  }
  attr {
    key: "value"
    value {
      tensor {
        dtype: DT_INT32
        tensor_shape {
          dim {
            size: 1
          }
        }
        int_val: 0
      }
    }
  }
}
node {
  name: "linear/linear_model/linear_model/linear_model/Sex/weighted_sum/Prod"
  op: "Prod"
  input: "linear/linear_model/linear_model/linear_model/Sex/weighted_sum/Slice"
  input: "linear/linear_model/linear_model/linear_model/Sex/weighted_sum/Const"
  attr {
    key: "T"
    value {
      type: DT_INT64
    }
  }
  attr {
    key: "Tidx"
    value {
      type: DT_INT32
    }
  }
  attr {
    key: "_output_shapes"
    value {
      list {
        shape {
        }
      }
    }
  }
  attr {
    key: "keep_dims"
    value {
      b: false
    }
  }
}
node {
  name: "linear/linear_model/linear_model/linear_model/Sex/weighted_sum/GatherV2/indices"
  op: "Const"
  attr {
    key: "_output_shapes"
    value {
      list {
        shape {
        }
      }
    }
  }
  attr {
    key: "dtype"
    value {
      type: DT_INT32
    }
  }
  attr {
    key: "value"
    value {
      tensor {
        dtype: DT_INT32
        tensor_shape {
        }
        int_val: 1
      }
    }
  }
}
node {
  name: "linear/linear_model/linear_model/linear_model/Sex/weighted_sum/GatherV2/axis"
  op: "Const"
  attr {
    key: "_output_shapes"
    value {
      list {
        shape {
        }
      }
    }
  }
  attr {
    key: "dtype"
    value {
      type: DT_INT32
    }
  }
  attr {
    key: "value"
    value {
      tensor {
        dtype: DT_INT32
        tensor_shape {
        }
        int_val: 0
      }
    }
  }
}
node {
  name: "linear/linear_model/linear_model/linear_model/Sex/weighted_sum/GatherV2"
  op: "GatherV2"
  input: "linear/linear_model/linear_model/linear_model/Sex/SparseReshape:1"
  input: "linear/linear_model/linear_model/linear_model/Sex/weighted_sum/GatherV2/indices"
  input: "linear/linear_model/linear_model/linear_model/Sex/weighted_sum/GatherV2/axis"
  attr {
    key: "Taxis"
    value {
      type: DT_INT32
    }
  }
  attr {
    key: "Tindices"
    value {
      type: DT_INT32
    }
  }
  attr {
    key: "Tparams"
    value {
      type: DT_INT64
    }
  }
  attr {
    key: "_output_shapes"
    value {
      list {
        shape {
        }
      }
    }
  }
}
node {
  name: "linear/linear_model/linear_model/linear_model/Sex/weighted_sum/Cast/x"
  op: "Pack"
  input: "linear/linear_model/linear_model/linear_model/Sex/weighted_sum/Prod"
  input: "linear/linear_model/linear_model/linear_model/Sex/weighted_sum/GatherV2"
  attr {
    key: "N"
    value {
      i: 2
    }
  }
  attr {
    key: "T"
    value {
      type: DT_INT64
    }
  }
  attr {
    key: "_output_shapes"
    value {
      list {
        shape {
          dim {
            size: 2
          }
        }
      }
    }
  }
  attr {
    key: "axis"
    value {
      i: 0
    }
  }
}
node {
  name: "linear/linear_model/linear_model/linear_model/Sex/weighted_sum/SparseReshape"
  op: "SparseReshape"
  input: "linear/linear_model/linear_model/linear_model/Sex/SparseReshape"
  input: "linear/linear_model/linear_model/linear_model/Sex/SparseReshape:1"
  input: "linear/linear_model/linear_model/linear_model/Sex/weighted_sum/Cast/x"
  attr {
    key: "_output_shapes"
    value {
      list {
        shape {
          dim {
            size: -1
          }
          dim {
            size: 2
          }
        }
        shape {
          dim {
            size: 2
          }
        }
      }
    }
  }
}
node {
  name: "linear/linear_model/linear_model/linear_model/Sex/weighted_sum/SparseReshape/Identity"
  op: "Identity"
  input: "linear/linear_model/linear_model/linear_model/Sex/SparseReshape/Identity"
  attr {
    key: "T"
    value {
      type: DT_INT64
    }
  }
  attr {
    key: "_output_shapes"
    value {
      list {
        shape {
          dim {
            size: -1
          }
        }
      }
    }
  }
}
node {
  name: "linear/linear_model/linear_model/linear_model/Sex/weighted_sum/GreaterEqual/y"
  op: "Const"
  attr {
    key: "_output_shapes"
    value {
      list {
        shape {
        }
      }
    }
  }
  attr {
    key: "dtype"
    value {
      type: DT_INT64
    }
  }
  attr {
    key: "value"
    value {
      tensor {
        dtype: DT_INT64
        tensor_shape {
        }
        int64_val: 0
      }
    }
  }
}
node {
  name: "linear/linear_model/linear_model/linear_model/Sex/weighted_sum/GreaterEqual"
  op: "GreaterEqual"
  input: "linear/linear_model/linear_model/linear_model/Sex/weighted_sum/SparseReshape/Identity"
  input: "linear/linear_model/linear_model/linear_model/Sex/weighted_sum/GreaterEqual/y"
  attr {
    key: "T"
    value {
      type: DT_INT64
    }
  }
  attr {
    key: "_output_shapes"
    value {
      list {
        shape {
          dim {
            size: -1
          }
        }
      }
    }
  }
}
node {
  name: "linear/linear_model/linear_model/linear_model/Sex/weighted_sum/Where"
  op: "Where"
  input: "linear/linear_model/linear_model/linear_model/Sex/weighted_sum/GreaterEqual"
  attr {
    key: "T"
    value {
      type: DT_BOOL
    }
  }
  attr {
    key: "_output_shapes"
    value {
      list {
        shape {
          dim {
            size: -1
          }
          dim {
            size: 1
          }
        }
      }
    }
  }
}
node {
  name: "linear/linear_model/linear_model/linear_model/Sex/weighted_sum/Reshape/shape"
  op: "Const"
  attr {
    key: "_output_shapes"
    value {
      list {
        shape {
          dim {
            size: 1
          }
        }
      }
    }
  }
  attr {
    key: "dtype"
    value {
…
    value {
      b: true
    }
  }
}
node {
  name: "save/restore_shard"
  op: "NoOp"
  input: "^save/Assign"
}
node {
  name: "save/RestoreV2_1/tensor_names"
  op: "Const"
  device: "/device:CPU:0"
  attr {
    key: "_output_shapes"
    value {
      list {
        shape {
          dim {
            size: 3
          }
        }
      }
    }
  }
  attr {
    key: "dtype"
    value {
      type: DT_STRING
    }
  }
  attr {
    key: "value"
    value {
      tensor {
        dtype: DT_STRING
        tensor_shape {
          dim {
            size: 3
          }
        }
        string_val: "linear/linear_model/Pclass/weights"
        string_val: "linear/linear_model/Sex/weights"
        string_val: "linear/linear_model/bias_weights"
      }
    }
  }
}
node {
  name: "save/RestoreV2_1/shape_and_slices"
  op: "Const"
  device: "/device:CPU:0"
  attr {
    key: "_output_shapes"
    value {
      list {
        shape {
          dim {
            size: 3
          }
        }
      }
    }
  }
  attr {
    key: "dtype"
    value {
      type: DT_STRING
    }
  }
  attr {
    key: "value"
    value {
      tensor {
        dtype: DT_STRING
        tensor_shape {
          dim {
            size: 3
          }
        }
        string_val: "3 1 0,3:0,1"
        string_val: "2 1 0,2:0,1"
        string_val: "1 0,1"
      }
    }
  }
}
node {
  name: "save/RestoreV2_1"
  op: "RestoreV2"
  input: "save/Const"
  input: "save/RestoreV2_1/tensor_names"
  input: "save/RestoreV2_1/shape_and_slices"
  device: "/device:CPU:0"
  attr {
    key: "_output_shapes"
    value {
      list {
        shape {
          dim {
            size: 3
          }
          dim {
            size: 1
          }
        }
        shape {
          dim {
            size: 2
          }
          dim {
            size: 1
          }
        }
        shape {
          dim {
            size: 1
          }
        }
      }
    }
  }
  attr {
    key: "dtypes"
    value {
      list {
        type: DT_FLOAT
        type: DT_FLOAT
        type: DT_FLOAT
      }
    }
  }
}
node {
  name: "save/Identity_13"
  op: "Identity"
  input: "save/RestoreV2_1"
  device: "/device:CPU:0"
  attr {
    key: "T"
    value {
      type: DT_FLOAT
    }
  }
  attr {
    key: "_output_shapes"
    value {
      list {
        shape {
          dim {
            size: 3
          }
          dim {
            size: 1
          }
        }
      }
    }
  }
}
node {
  name: "save/AssignVariableOp"
  op: "AssignVariableOp"
  input: "linear/linear_model/Pclass/weights/part_0"
  input: "save/Identity_13"
  device: "/device:CPU:0"
  attr {
    key: "dtype"
    value {
      type: DT_FLOAT
    }
  }
}
node {
  name: "save/Identity_14"
  op: "Identity"
  input: "save/RestoreV2_1:1"
  device: "/device:CPU:0"
  attr {
    key: "T"
    value {
      type: DT_FLOAT
    }
  }
  attr {
    key: "_output_shapes"
    value {
      list {
        shape {
          dim {
            size: 2
          }
          dim {
            size: 1
          }
        }
      }
    }
  }
}
node {
  name: "save/AssignVariableOp_1"
  op: "AssignVariableOp"
  input: "linear/linear_model/Sex/weights/part_0"
  input: "save/Identity_14"
  device: "/device:CPU:0"
  attr {
    key: "dtype"
    value {
      type: DT_FLOAT
    }
  }
}
node {
  name: "save/Identity_15"
  op: "Identity"
  input: "save/RestoreV2_1:2"
  device: "/device:CPU:0"
  attr {
    key: "T"
    value {
      type: DT_FLOAT
    }
  }
  attr {
    key: "_output_shapes"
    value {
      list {
        shape {
          dim {
            size: 1
          }
        }
      }
    }
  }
}
node {
  name: "save/AssignVariableOp_2"
  op: "AssignVariableOp"
  input: "linear/linear_model/bias_weights/part_0"
  input: "save/Identity_15"
  device: "/device:CPU:0"
  attr {
    key: "dtype"
    value {
      type: DT_FLOAT
    }
  }
}
node {
  name: "save/restore_shard_1"
  op: "NoOp"
  input: "^save/AssignVariableOp"
  input: "^save/AssignVariableOp_1"
  input: "^save/AssignVariableOp_2"
  device: "/device:CPU:0"
}
node {
  name: "save/restore_all/NoOp"
  op: "NoOp"
  input: "^save/restore_shard"
}
node {
  name: "save/restore_all/NoOp_1"
  op: "NoOp"
  input: "^save/restore_shard_1"
  device: "/device:CPU:0"
}
node {
  name: "save/restore_all"
  op: "NoOp"
  input: "^save/restore_all/NoOp"
  input: "^save/restore_all/NoOp_1"
}
library {
  function {
    signature {
      name: "_make_dataset_ZroFNzJ0Ito"
      output_arg {
        name: "modeldataset"
        type: DT_VARIANT
      }
      description: "Factory function for a dataset."
      is_stateful: true
    }
    node_def {
      name: "optimizations"
      op: "Const"
      device: "/device:CPU:0"
      attr {
        key: "dtype"
        value {
          type: DT_STRING
        }
      }
      attr {
        key: "value"
        value {
          tensor {
            dtype: DT_STRING
            tensor_shape {
              dim {
                size: 3
              }
            }
            string_val: "map_and_batch_fusion"
            string_val: "noop_elimination"
            string_val: "shuffle_and_repeat_fusion"
          }
        }
      }
    }
    node_def {
      name: "TensorSliceDataset/tensors/component_0"
      op: "Const"
      device: "/device:CPU:0"
      attr {
        key: "dtype"
        value {
          type: DT_DOUBLE
        }
      }
      attr {
        key: "value"
        value {
          tensor {
            dtype: DT_DOUBLE
            tensor_shape {
              dim {
                size: 625
              }
            }
            tensor_content: "…"
          }
        }
      }
    }
    node_def {
      name: "TensorSliceDataset/tensors/component_1"
      op: "Const"
      device: "/device:CPU:0"
      attr {
        key: "dtype"
        value {
          type: DT_STRING
        }
      }
      attr {
        key: "value"
        value {
          tensor {
            dtype: DT_STRING
            tensor_shape {
              dim {
                size: 625
              }
            }
            string_val: "Allen, Mr. William Henry"
            string_val: "Jansson, Mr. Carl Olof"
            string_val: "Lurette, Miss. Elise"
            string_val: "Sutton, Mr. Frederick"
            string_val: "Danbom, Mr. Ernst Gilbert"
            string_val: "Skoog, Master. Harald"
            string_val: "Kilgannon, Mr. Thomas J"
            string_val: "Hood, Mr. Ambrose Jr"
            string_val: "Hewlett, Mrs. (Mary D Kingcome) "
            string_val: "Frauenthal, Mrs. Henry William (Clara Heinsheimer)"
            string_val: "Moran, Mr. Daniel J"
            string_val: "Norman, Mr. Robert Douglas"
            string_val: "Ilett, Miss. Bertha"
            string_val: "Ohman, Miss. Velin"
            string_val: "Saad, Mr. Khalil"
            string_val: "Coleff, Mr. Peju"
            string_val: "Harris, Mr. George"
            string_val: "Asim, Mr. Adola"
            string_val: "Ali, Mr. William"
            string_val: "Chambers, Mrs. Norman Campbell (Bertha Griggs)"
            string_val: "Taussig, Miss. Ruth"
            string_val: "West, Miss. Constance Mirium"
            string_val: "Harper, Mr. Henry Sleeper"
            string_val: "Turcin, Mr. Stjepan"
            string_val: "Adahl, Mr. Mauritz Nils Martin"
            string_val: "Panula, Mr. Ernesti Arvid"
            string_val: "Goncalves, Mr. Manuel Estanslas"
            string_val: "Christmann, Mr. Emil"
            string_val: "Clarke, Mrs. Charles V (Ada Maria Winfield)"
            string_val: "Stoytcheff, Mr. Ilia"
            string_val: "Silvey, Mr. William Baird"
            string_val: "Rice, Master. Arthur"
            string_val: "Barbara, Miss. Saiide"
            string_val: "Lefebre, Miss. Ida"
            string_val: "West, Mr. Edwy Arthur"
            string_val: "Salkjelsvik, Miss. Anna Kristine"
            string_val: "Simonius-Blumer, Col. Oberst Alfons"
            string_val: "Endres, Miss. Caroline Louise"
            string_val: "Futrelle, Mr. Jacques Heath"
            string_val: "Myhrman, Mr. Pehr Fabian Oliver Malkolm"
            string_val: "Kelly, Miss. Mary"
            string_val: "Sutehall, Mr. Henry Jr"
            string_val: "Stanley, Miss. Amy Zillah Elsie"
            string_val: "Mamee, Mr. Hanna"
            string_val: "Yasbeck, Mrs. Antoni (Selini Alexander)"
            string_val: "Lindqvist, Mr. Eino William"
            string_val: "Taylor, Mr. Elmer Zebley"
            string_val: "Lefebre, Miss. Mathilde"
            string_val: "Thayer, Mrs. John Borland (Marian Longstreth Morris)"
            string_val: "Beesley, Mr. Lawrence"
            string_val: "Lesurer, Mr. Gustave J"
            string_val: "Maisner, Mr. Simon"
            string_val: "Mellinger, Miss. Madeleine Violet"
            string_val: "Sage, Miss. Constance Gladys"
            string_val: "Nasser, Mrs. Nicholas (Adele Achem)"
            string_val: "Cairns, Mr. Alexander"
            string_val: "Smith, Mr. James Clinch"
            string_val: "Zabour, Miss. Thamine"
            string_val: "Vovk, Mr. Janko"
            string_val: "Bradley, Mr. George (\"George Arthur Brayton\")"
            string_val: "Renouf, Mrs. Peter Henry (Lillian Jefferys)"
            string_val: "van Billiard, Mr. Austin Blyler"
            string_val: "Mack, Mrs. (Mary)"
            string_val: "Nicola-Yarred, Miss. Jamila"
            string_val: "Odahl, Mr. Nils Martin"
            string_val: "Bengtsson, Mr. John Viktor"
            string_val: "Newsom, Miss. Helen Monypeny"
            string_val: "Ridsdale, Miss. Lucy"
            string_val: "Gee, Mr. Arthur H"
            string_val: "Silverthorne, Mr. Spencer Victor"
            string_val: "Brocklebank, Mr. William Alfred"
            string_val: "Murdlin, Mr. Joseph"
            string_val: "Farthing, Mr. John"
            string_val: "Kirkland, Rev. Charles Leonard"
            string_val: "Lahoud, Mr. Sarkis"
            string_val: "Mellors, Mr. William John"
            string_val: "Blank, Mr. Henry"
            string_val: "Futrelle, Mrs. Jacques Heath (Lily May Peel)"
            string_val: "Touma, Mrs. Darwis (Hanne Youssef Razi)"
            string_val: "Kelly, Mrs. Florence \"Fannie\""
            string_val: "Troutt, Miss. Edwina Celia \"Winnie\""
            string_val: "Moen, Mr. Sigurd Hansen"
            string_val: "Gallagher, Mr. Martin"
            string_val: "Peters, Miss. Katie"
            string_val: "Lam, Mr. Ali"
            string_val: "Bostandyeff, Mr. Guentcho"
            string_val: "Weisz, Mrs. Leopold (Mathilde Francoise Pede)"
            string_val: "de Pelsmaeker, Mr. Alfons"
            string_val: "Laitinen, Miss. Kristina Sofia"
            string_val: "Backstrom, Mrs. Karl Alfred (Maria Mathilda Gustafsson)"
            string_val: "Scanlan, Mr. James"
            string_val: "Ahlin, Mrs. Johan (Johanna Persdotter Larsson)"
            string_val: "Chambers, Mr. Norman Campbell"
            string_val: "Crosby, Miss. Harriet R"
            string_val: "Hakkarainen, Mrs. Pekka Pietari (Elin Matilda Dolck)"
            string_val: "Olsson, Mr. Nils Johan Goransson"
            string_val: "O\'Brien, Mr. Timothy"
            string_val: "Nicholls, Mr. Joseph Charles"
            string_val: "Jonsson, Mr. Carl"
            string_val: "Lundahl, Mr. Johan Svensson"
            string_val: "Ostby, Mr. Engelhart Cornelius"
            string_val: "Nicola-Yarred, Master. Elias"
            string_val: "van Melkebeke, Mr. Philemon"
            string_val: "Daniel, Mr. Robert Williams"
            string_val: "Sivola, Mr. Antti Wilhelm"
            string_val: "Jensen, Mr. Svend Lauritz"
            string_val: "Dantcheff, Mr. Ristiu"
            string_val: "Duff Gordon, Lady. (Lucille Christiana Sutherland) (\"Mrs Morgan\")"
            string_val: "Hippach, Mrs. Louis Albert (Ida Sophia Fischer)"
            string_val: "Sobey, Mr. Samuel James Hayden"
            string_val: "Gustafsson, Mr. Karl Gideon"
            string_val: "Guggenheim, Mr. Benjamin"
            string_val: "O\'Dwyer, Miss. Ellen \"Nellie\""
            string_val: "Spedden, Mrs. Frederic Oakley (Margaretta Corning Stone)"
            string_val: "Daly, Mr. Eugene Patrick"
            string_val: "Asplund, Mrs. Carl Oscar (Selma Augusta Emilia Johansson)"
            string_val: "Renouf, Mr. Peter Henry"
            string_val: "Greenberg, Mr. Samuel"
            string_val: "Hirvonen, Miss. Hildur E"
            string_val: "Serepeca, Miss. Augusta"
            string_val: "Vestrom, Miss. Hulda Amanda Adolfina"
            string_val: "Cleaver, Miss. Alice"
            string_val: "Woolner, Mr. Hugh"
            string_val: "Hold, Mr. Stephen"
            string_val: "Rekic, Mr. Tido"
            string_val: "Levy, Mr. Rene Jacques"
            string_val: "Heikkinen, Miss. Laina"
            string_val: "Boulos, Mrs. Joseph (Sultana)"
            string_val: "Niskanen, Mr. Juha"
            string_val: "Keane, Mr. Andrew \"Andy\""
            string_val: "Barbara, Mrs. (Catherine David)"
            string_val: "Kink-Heilmann, Miss. Luise Gretchen"
            string_val: "Dooley, Mr. Patrick"
            string_val: "Maioni, Miss. Roberta"
            string_val: "Andersson, Miss. Ingeborg Constanzia"
            string_val: "Webber, Mr. James"
            string_val: "Fleming, Miss. Margaret"
            string_val: "Hegarty, Miss. Hanora \"Nora\""
            string_val: "Cook, Mr. Jacob"
            string_val: "Yousif, Mr. Wazli"
            string_val: "Jarvis, Mr. John Denzil"
            string_val: "Harris, Mrs. Henry Birkhardt (Irene Wallach)"
            string_val: "Fry, Mr. Richard"
            string_val: "Caldwell, Master. Alden Gates"
            string_val: "O\'Connor, Mr. Maurice"
            string_val: "Duff Gordon, Sir. Cosmo Edmund (\"Mr Morgan\")"
            string_val: "Sjostedt, Mr. Ernst Adolf"
            string_val: "West, Mrs. Edwy Arthur (Ada Mary Worth)"
            string_val: "Taussig, Mrs. Emil (Tillie Mandelbaum)"
            string_val: "Connaghton, Mr. Michael"
            string_val: "Sirota, Mr. Maurice"
            string_val: "Kent, Mr. Edward Austin"
            string_val: "Pears, Mrs. Thomas (Edith Wearne)"
            string_val: "Sharp, Mr. Percival James R"
            string_val: "Bishop, Mrs. Dickinson H (Helen Walton)"
            string_val: "Rush, Mr. Alfred George John"
            string_val: "Peuchen, Major. Arthur Godfrey"
            string_val: "McCormack, Mr. Thomas Joseph"
            string_val: "Spencer, Mrs. William Augustus (Marie Eugenie)"
            string_val: "Wiklund, Mr. Jakob Alfred"
            string_val: "Celotti, Mr. Francesco"
            string_val: "O\'Connell, Mr. Patrick D"
            string_val: "Mayne, Mlle. Berthe Antonine (\"Mrs de Villiers\")"
            string_val: "Mernagh, Mr. Robert"
            string_val: "Vander Planke, Mr. Leo Edmondus"
            string_val: "Laroche, Mr. Joseph Philippe Lemercier"
            string_val: "Hedman, Mr. Oskar Arvid"
            string_val: "Romaine, Mr. Charles Hallace (\"Mr C Rolmane\")"
            string_val: "Skoog, Mrs. William (Anna Bernhardina Karlsson)"
            string_val: "Karun, Miss. Manca"
            string_val: "Moussa, Mrs. (Mantoura Boulos)"
            string_val: "Herman, Miss. Alice"
            string_val: "Backstrom, Mr. Karl Alfred"
            string_val: "Hodges, Mr. Henry Price"
            string_val: "Morrow, Mr. Thomas Rowan"
            string_val: "Bjornstrom-Steffansson, Mr. Mauritz Hakan"
            string_val: "Goldsmith, Mr. Frank John"
            string_val: "Lovell, Mr. John Hall (\"Henry\")"
            string_val: "Cacic, Miss. Marija"
            string_val: "Caldwell, Mrs. Albert Francis (Sylvia Mae Harbaugh)"
            string_val: "Harper, Rev. John"
            string_val: "Klasen, Mr. Klas Albin"
            string_val: "Brewe, Dr. Arthur Jackson"
            string_val: "Longley, Miss. Gretchen Fiske"
            string_val: "Goodwin, Miss. Lillian Amy"
            string_val: "Minahan, Dr. William Edward"
            string_val: "Kalvik, Mr. Johannes Halvorsen"
            string_val: "Mineff, Mr. Ivan"
            string_val: "Sloper, Mr. William Thompson"
            string_val: "Braund, Mr. Lewis Richard"
            string_val: "Hoyt, Mr. Frederick Maxfield"
            string_val: "Abbott, Mrs. Stanton (Rosa Hunt)"
            string_val: "Stead, Mr. William Thomas"
            string_val: "Johannesen-Bratthammer, Mr. Bernt"
            string_val: "Nasser, Mr. Nicholas"
            string_val: "Robbins, Mr. Victor"
            string_val: "Larsson, Mr. Bengt Edvin"
            string_val: "Givard, Mr. Hans Kristensen"
            string_val: "Youseff, Mr. Gerious"
            string_val: "Naidenoff, Mr. Penko"
            string_val: "Sedgwick, Mr. Charles Frederick Waddington"
            string_val: "McMahon, Mr. Martin"
            string_val: "Sundman, Mr. Johan Julian"
            string_val: "Lobb, Mr. William Arthur"
            string_val: "Cunningham, Mr. Alfred Fleming"
            string_val: "Leonard, Mr. Lionel"
            string_val: "Bracken, Mr. James H"
            string_val: "Walker, Mr. William Anderson"
            string_val: "Swift, Mrs. Frederick Joel (Margaret Welles Barron)"
            string_val: "Olsen, Mr. Ole Martin"
            string_val: "Otter, Mr. Richard"
            string_val: "Lang, Mr. Fang"
            string_val: "Van der hoef, Mr. Wyckoff"
            string_val: "Brown, Miss. Amelia \"Mildred\""
            string_val: "Petroff, Mr. Pastcho (\"Pentcho\")"
            string_val: "Hoyt, Mrs. Frederick Maxfield (Jane Anne Forby)"
            string_val: "Hansen, Mr. Henry Damsgaard"
            string_val: "Gheorgheff, Mr. Stanio"
            string_val: "Young, Miss. Marie Grice"
            string_val: "Davies, Master. John Morgan Jr"
            string_val: "Allison, Master. Hudson Trevor"
            string_val: "Duane, Mr. Frank"
            string_val: "Beckwith, Mr. Richard Leonard"
            string_val: "Andrew, Mr. Edgardo Samuel"
            string_val: "Cameron, Miss. Clear Annie"
            string_val: "Drazenoic, Mr. Jozef"
            string_val: "Doling, Mrs. John T (Ada Julia Bone)"
            string_val: "Davison, Mrs. Thomas Henry (Mary E Finck)"
            string_val: "Baumann, Mr. John D"
            string_val: "Calic, Mr. Jovo"
            string_val: "Turja, Miss. Anna Sofia"
            string_val: "Wilhelms, Mr. Charles"
            string_val: "Gale, Mr. Shadrach"
            string_val: "Abbing, Mr. Anthony"
            string_val: "Rice, Master. George Hugh"
            string_val: "Sagesser, Mlle. Emma"
            string_val: "Harper, Mrs. Henry Sleeper (Myna Haxtun)"
            string_val: "Pasic, Mr. Jakob"
            string_val: "Harmer, Mr. Abraham (David Lishin)"
            string_val: "Andrews, Mr. Thomas Jr"
            string_val: "Bowen, Mr. David John \"Dai\""
            string_val: "Downton, Mr. William James"
            string_val: "Sjoblom, Miss. Anna Sofia"
            string_val: "Harder, Mr. George Achilles"
            string_val: "Chaffee, Mr. Herbert Fuller"
            string_val: "Boulos, Mr. Hanna"
            string_val: "Goldschmidt, Mr. George B"
            string_val: "Bidois, Miss. Rosalie"
            string_val: "Funk, Miss. Annie Clemmer"
            string_val: "Lehmann, Miss. Bertha"
            string_val: "Arnold-Franchi, Mrs. Josef (Josefine Franchi)"
            string_val: "Cavendish, Mr. Tyrell William"
            string_val: "Allison, Mrs. Hudson J C (Bessie Waldo Daniels)"
            string_val: "Pengelly, Mr. Frederick William"
            string_val: "Caram, Mrs. Joseph (Maria Elias)"
            string_val: "Taylor, Mrs. Elmer Zebley (Juliet Cummins Wright)"
            string_val: "Hagland, Mr. Ingvald Olai Olsen"
            string_val: "Sawyer, Mr. Frederick Charles"
            string_val: "Emir, Mr. Farred Chehab"
            string_val: "Maenpaa, Mr. Matti Alexanteri"
            string_val: "McCarthy, Mr. Timothy J"
            string_val: "Rothes, the Countess. of (Lucy Noel Martha Dyer-Edwards)"
            string_val: "Lemberopolous, Mr. Peter L"
            string_val: "Zimmerman, Mr. Leo"
            string_val: "Pavlovic, Mr. Stefo"
            string_val: "Skoog, Miss. Margit Elizabeth"
            string_val: "Palsson, Miss. Stina Viola"
            string_val: "McCoy, Mr. Bernard"
            string_val: "Carter, Master. William Thornton II"
            string_val: "Andersson, Miss. Erna Alexandra"
            string_val: "Williams, Mr. Charles Duane"
            string_val: "Francatelli, Miss. Laura Mabel"
            string_val: "Collyer, Mrs. Harvey (Charlotte Annie Tate)"
            string_val: "Fox, Mr. Stanley Hubert"
            string_val: "Pernot, Mr. Rene"
            string_val: "Fortune, Mr. Mark"
            string_val: "Jensen, Mr. Hans Peder"
            string_val: "Calderhead, Mr. Edward Pennington"
            string_val: "Denkoff, Mr. Mitto"
            string_val: "Olsen, Mr. Karl Siegwart Andreas"
            string_val: "Jonkoff, Mr. Lalio"
            string_val: "Perkin, Mr. John Henry"
            string_val: "Richards, Mrs. Sidney (Emily Hocking)"
            string_val: "Stahelin-Maeglin, Dr. Max"
            string_val: "Markoff, Mr. Marin"
            string_val: "Saad, Mr. Amin"
            string_val: "Reed, Mr. James George"
            string_val: "Edvardsson, Mr. Gustaf Hjalmar"
            string_val: "Parr, Mr. William Henry Marsh"
            string_val: "Berriman, Mr. William John"
            string_val: "Ibrahim Shawah, Mr. Yousseff"
            string_val: "O\'Brien, Mr. Thomas"
            string_val: "Rice, Mrs. William (Margaret Norton)"
            string_val: "Ling, Mr. Lee"
            string_val: "Anderson, Mr. Harry"
            string_val: "Berglund, Mr. Karl Ivar Sven"
            string_val: "Johansson, Mr. Gustaf Joel"
            string_val: "Cardeza, Mr. Thomas Drake Martinez"
            string_val: "Homer, Mr. Harry (\"Mr E Haven\")"
            string_val: "Phillips, Miss. Kate Florence (\"Mrs Kate Louise Phillips Marshall\")"
            string_val: "Larsson, Mr. August Viktor"
            string_val: "Panula, Master. Eino Viljami"
            string_val: "Stephenson, Mrs. Walter Bertram (Martha Eustis)"
            string_val: "Lester, Mr. James"
            string_val: "Panula, Master. Urho Abraham"
            string_val: "Hampe, Mr. Leon"
            string_val: "Laroche, Miss. Simonne Marie Anne Andree"
            string_val: "Jussila, Miss. Katriina"
            string_val: "Doling, Miss. Elsie"
            string_val: "Navratil, Master. Michel M"
            string_val: "Palsson, Miss. Torborg Danira"
            string_val: "Trout, Mrs. William H (Jessie L)"
            string_val: "Sandstrom, Miss. Marguerite Rut"
            string_val: "Carter, Mrs. William Ernest (Lucile Polk)"
            string_val: "Moutal, Mr. Rahamin Haim"
            string_val: "Silven, Miss. Lyyli Karoliina"
            string_val: "Moor, Mrs. (Beila)"
            string_val: "Long, Mr. Milton Clyde"
            string_val: "Richard, Mr. Emile"
            string_val: "White, Mr. Richard Frasar"
            string_val: "Plotcharsky, Mr. Vasil"
            string_val: "Andersson, Miss. Sigrid Elisabeth"
            string_val: "Slayter, Miss. Hilda Mary"
            string_val: "Harrison, Mr. William"
            string_val: "Barah, Mr. Hanna Assi"
            string_val: "Chibnall, Mrs. (Edith Martha Bowerman)"
            string_val: "Nye, Mrs. (Elizabeth Ramell)"
            string_val: "Andrews, Miss. Kornelia Theodosia"
            string_val: "Petroff, Mr. Nedelio"
            string_val: "Hassan, Mr. Houssein G N"
            string_val: "McDermott, Miss. Brigdet Delia"
            string_val: "Taussig, Mr. Emil"
            string_val: "Honkanen, Miss. Eliina"
            string_val: "Warren, Mrs. Frank Manley (Anna Sophia Atkinson)"
            string_val: "Parrish, Mrs. (Lutie Davis)"
            string_val: "Thorneycroft, Mr. Percival"
            string_val: "Jalsevac, Mr. Ivan"
            string_val: "Aks, Mrs. Sam (Leah Rosen)"
            string_val: "Landergren, Miss. Aurora Adelia"
            string_val: "Wick, Miss. Mary Natalie"
            string_val: "Theobald, Mr. Thomas Leonard"
            string_val: "Fischer, Mr. Eberhard Thelander"
            string_val: "Foo, Mr. Choong"
            string_val: "Gilnagh, Miss. Katherine \"Katie\""
            string_val: "Lewy, Mr. Ervin G"
            string_val: "Smart, Mr. John Montgomery"
            string_val: "Colley, Mr. Edward Pomeroy"
            string_val: "Carter, Rev. Ernest Courtenay"
            string_val: "Bourke, Mr. John"
            string_val: "Radeff, Mr. Alexander"
            string_val: "Abelson, Mrs. Samuel (Hannah Wizosky)"
            string_val: "Harris, Mr. Henry Birkhardt"
            string_val: "Rood, Mr. Hugh Roscoe"
            string_val: "Albimona, Mr. Nassef Cassem"
            string_val: "O\'Leary, Miss. Hanora \"Norah\""
            string_val: "Hart, Miss. Eva Miriam"
            string_val: "Johnson, Mr. Alfred"
            string_val: "Coutts, Master. Eden Leslie \"Neville\""
            string_val: "Boulos, Miss. Nourelain"
            string_val: "del Carlo, Mr. Sebastiano"
            string_val: "Waelens, Mr. Achille"
            string_val: "Coleff, Mr. Satio"
            string_val: "Bing, Mr. Lee"
            string_val: "Coleridge, Mr. Reginald Charles"
            string_val: "Emanuel, Miss. Virginia Ethel"
            string_val: "Ivanoff, Mr. Kanio"
            string_val: "McEvoy, Mr. Michael"
            string_val: "Andersson, Mr. Anders Johan"
            string_val: "Nysten, Miss. Anna Sofia"
            string_val: "Todoroff, Mr. Lalio"
            string_val: "Mallet, Master. Andre"
            string_val: "Meanwell, Miss. (Marion Ogden)"
            string_val: "Panula, Mrs. Juha (Maria Emilia Ojala)"
            string_val: "Collyer, Miss. Marjorie \"Lottie\""
            string_val: "Vander Cruyssen, Mr. Victor"
            string_val: "Madsen, Mr. Fridtjof Arne"
            string_val: "Carlsson, Mr. Frans Olof"
            string_val: "Kraeff, Mr. Theodor"
            string_val: "Williams, Mr. Charles Eugene"
            string_val: "Jacobsohn, Mr. Sidney Samuel"
            string_val: "Stewart, Mr. Albert A"
            string_val: "Canavan, Miss. Mary"
            string_val: "Robert, Mrs. Edward Scott (Elisabeth Walton McMillan)"
            string_val: "Arnold-Franchi, Mr. Josef"
            string_val: "Rosblom, Mrs. Viktor (Helena Wilhelmina)"
            string_val: "Uruchurtu, Don. Manuel E"
            string_val: "Lulic, Mr. Nikola"
            string_val: "Elias, Mr. Tannous"
            string_val: "Johnson, Mrs. Oscar W (Elisabeth Vilhelmina Berg)"
            string_val: "Newell, Miss. Marjorie"
            string_val: "Appleton, Mrs. Edward Dale (Charlotte Lamson)"
            string_val: "Chapman, Mr. John Henry"
            string_val: "Allison, Miss. Helen Loraine"
            string_val: "Williams, Mr. Leslie"
            string_val: "Olsen, Mr. Henry Margido"
            string_val: "Roebling, Mr. Washington Augustus II"
            string_val: "Morley, Mr. Henry Samuel (\"Mr Henry Marshall\")"
            string_val: "Baxter, Mrs. James (Helene DeLaudeniere Chaput)"
            string_val: "Hansen, Mr. Claus Peter"
            string_val: "Turpin, Mrs. William John Robert (Dorothy Ann Wonnacott)"
            string_val: "Jenkin, Mr. Stephen Curnow"
            string_val: "Van Impe, Mr. Jean Baptiste"
            string_val: "Dahl, Mr. Karl Edwart"
            string_val: "Hocking, Mr. Richard George"
            string_val: "Svensson, Mr. Johan"
            string_val: "Widegren, Mr. Carl/Charles Peter"
            string_val: "Andersson, Master. Sigvard Harald Elias"
            string_val: "Becker, Miss. Marion Louise"
            string_val: "Carlsson, Mr. August Sigfrid"
            string_val: "Brown, Mrs. James Joseph (Margaret Tobin)"
            string_val: "Carter, Mr. William Ernest"
            string_val: "Hays, Miss. Margaret Bechstein"
            string_val: "Garside, Miss. Ethel"
            string_val: "Nankoff, Mr. Minko"
            string_val: "Ford, Mrs. Edward (Margaret Ann Watson)"
            string_val: "Smith, Mr. Richard William"
            string_val: "Kantor, Mr. Sinai"
            string_val: "Petranec, Miss. Matilda"
            string_val: "Rommetvedt, Mr. Knud Paust"
            string_val: "Laleff, Mr. Kristo"
            string_val: "Allum, Mr. Owen George"
            string_val: "Heininen, Miss. Wendla Maria"
            string_val: "Van Impe, Mrs. Jean Baptiste (Rosalie Paula Govaert)"
            string_val: "Torber, Mr. Ernst William"
            string_val: "Haas, Miss. Aloisia"
            string_val: "Compton, Miss. Sara Rebecca"
            string_val: "Wick, Mrs. George Dennick (Mary Hitchcock)"
            string_val: "Panula, Mr. Jaako Arnold"
            string_val: "Kassem, Mr. Fared"
            string_val: "Hosono, Mr. Masabumi"
            string_val: "Smiljanic, Mr. Mile"
            string_val: "Stankovic, Mr. Ivan"
            string_val: "Mitchell, Mr. Henry Michael"
            string_val: "Aubart, Mme. Leontine Pauline"
            string_val: "Douglas, Mr. Walter Donald"
            string_val: "Bateman, Rev. Robert James"
            string_val: "Eklund, Mr. Hans Linus"
            string_val: "Markun, Mr. Johann"
            string_val: "Meyer, Mrs. Edgar Joseph (Leila Saks)"
            string_val: "Johnston, Mr. Andrew G"
            string_val: "Porter, Mr. Walter Chamberlain"
            string_val: "Ford, Miss. Robina Maggie \"Ruby\""
            string_val: "Rugg, Miss. Emily"
            string_val: "Hickman, Mr. Lewis"
            string_val: "Wright, Mr. George"
            string_val: "Pettersson, Miss. Ellen Natalia"
            string_val: "Balkic, Mr. Cerin"
            string_val: "Daly, Mr. Peter Denis "
            string_val: "Elias, Mr. Dibo"
            string_val: "Jacobsohn, Mrs. Sidney Samuel (Amy Frances Christy)"
            string_val: "Sinkkonen, Miss. Anna"
            string_val: "Rice, Master. Eugene"
            string_val: "Andreasson, Mr. Paul Edvin"
            string_val: "Kink, Mr. Vincenz"
            string_val: "Oreskovic, Miss. Marija"
            string_val: "O\'Brien, Mrs. Thomas (Johanna \"Hannah\" Godfrey)"
            string_val: "Frolicher-Stehli, Mr. Maxmillian"
            string_val: "Butler, Mr. Reginald Fenton"
            string_val: "Jensen, Mr. Niels Peder"
            string_val: "Mangan, Miss. Mary"
            string_val: "Dennis, Mr. Samuel"
            string_val: "Samaan, Mr. Youssef"
            string_val: "Murphy, Miss. Katherine \"Kate\""
            string_val: "Moraweck, Dr. Ernest"
            string_val: "Garfirth, Mr. John"
            string_val: "Collyer, Mr. Harvey"
            string_val: "Andersson, Miss. Ellis Anna Maria"
            string_val: "Moubarek, Master. Gerios"
            string_val: "Willey, Mr. Edward"
            string_val: "Carr, Miss. Helen \"Ellen\""
            string_val: "Eustis, Miss. Elizabeth Mussey"
            string_val: "Milling, Mr. Jacob Christian"
            string_val: "Weir, Col. John"
            string_val: "Christy, Miss. Julie Rachel"
            string_val: "Pinsky, Mrs. (Rosa)"
            string_val: "Hart, Mr. Benjamin"
            string_val: "Coxon, Mr. Daniel"
            string_val: "Attalah, Mr. Sleiman"
            string_val: "Natsch, Mr. Charles H"
            string_val: "Marechal, Mr. Pierre"
            string_val: "Skoog, Mr. Wilhelm"
            string_val: "Cribb, Mr. John Hatfield"
            string_val: "Gilinski, Mr. Eliezer"
            string_val: "Bailey, Mr. Percy Andrew"
            string_val: "Quick, Miss. Phyllis May"
            string_val: "Cumings, Mrs. John Bradley (Florence Briggs Thayer)"
            string_val: "Penasco y Castellana, Mr. Victor de Satode"
            string_val: "White, Mr. Percival Wayland"
            string_val: "Goodwin, Mr. Charles Edward"
            string_val: "Nakid, Mr. Sahid"
            string_val: "Fortune, Mr. Charles Alexander"
            string_val: "Harknett, Miss. Alice Phoebe"
            string_val: "Davies, Mr. Charles Henry"
            string_val: "Sdycoff, Mr. Todor"
            string_val: "Frolicher, Miss. Hedwig Margaritha"
            string_val: "Williams, Mr. Howard Hugh \"Harry\""
            string_val: "Chronopoulos, Mr. Apostolos"
            string_val: "Peter, Mrs. Catherine (Catherine Rizk)"
            string_val: "Peter, Miss. Anna"
            string_val: "Rouse, Mr. Richard Henry"
            string_val: "Vanden Steen, Mr. Leo Peter"
            string_val: "Rosblom, Mr. Viktor Richard"
            string_val: "Goodwin, Master. William Frederick"
            string_val: "Bissette, Miss. Amelia"
            string_val: "Dodge, Master. Washington"
            string_val: "Culumovic, Mr. Jeso"
            string_val: "Kiernan, Mr. Philip"
            string_val: "Laroche, Mrs. Joseph (Juliette Marie Louise Lafargue)"
            string_val: "Slocovski, Mr. Selman Francis"
            string_val: "Cohen, Mr. Gurshon \"Gus\""
            string_val: "Olsson, Miss. Elina"
            string_val: "Holverson, Mr. Alexander Oskar"
            string_val: "Gustafsson, Mr. Anders Vilhelm"
            string_val: "Elsbury, Mr. William James"
            string_val: "Horgan, Mr. John"
            string_val: "Bowerman, Miss. Elsie Edith"
            string_val: "Hoyt, Mr. William Fisher"
            string_val: "Harrington, Mr. Charles H"
            string_val: "Collander, Mr. Erik Gustaf"
            string_val: "Nicholson, Mr. Arthur Ernest"
            string_val: "Hickman, Mr. Stanley George"
            string_val: "Vande Walle, Mr. Nestor Cyriel"
            string_val: "Gronnestad, Mr. Daniel Danielsen"
            string_val: "Charters, Mr. David"
            string_val: "Watson, Mr. Ennis Hastings"
            string_val: "Astor, Mrs. John Jacob (Madeleine Talmadge Force)"
            string_val: "Brown, Mr. Thomas William Solomon"
            string_val: "Kallio, Mr. Nikolai Erland"
            string_val: "Dean, Master. Bertram Vere"
            string_val: "Leinonen, Mr. Antti Gustaf"
            string_val: "Goldsmith, Master. Frank John William \"Frankie\""
            string_val: "Lennon, Mr. Denis"
            string_val: "Toomey, Miss. Ellen"
            string_val: "Quick, Mrs. Frederick Charles (Jane Richards)"
            string_val: "Wheadon, Mr. Edward H"
            string_val: "Jussila, Miss. Mari Aina"
            string_val: "Danbom, Mrs. Ernst Gilbert (Anna Sigrid Maria Brogren)"
            string_val: "Keane, Miss. Nora A"
            string_val: "Moor, Master. Meier"
            string_val: "Tikkanen, Mr. Juho"
            string_val: "Skoog, Master. Karl Thorsten"
            string_val: "Becker, Master. Richard F"
            string_val: "Burke, Mr. Jeremiah"
            string_val: "Foreman, Mr. Benjamin Laventall"
            string_val: "Thorne, Mrs. Gertrude Maybelle"
            string_val: "Madigan, Miss. Margaret \"Maggie\""
            string_val: "Healy, Miss. Hanora \"Nora\""
            string_val: "Knight, Mr. Robert J"
            string_val: "Peduzzi, Mr. Joseph"
            string_val: "Keefe, Mr. Arthur"
            string_val: "Campbell, Mr. William"
            string_val: "Mudd, Mr. Thomas Charles"
            string_val: "McGowan, Miss. Anna \"Annie\""
            string_val: "Carrau, Mr. Francisco M"
            string_val: "de Messemaeker, Mrs. Guillaume Joseph (Emma)"
            string_val: "Novel, Mr. Mansouer"
            string_val: "Kenyon, Mrs. Frederick R (Marion)"
            string_val: "Lines, Miss. Mary Conover"
            string_val: "Webber, Miss. Susan"
            string_val: "Gaskell, Mr. Alfred"
            string_val: "Robins, Mrs. Alexander A (Grace Charity Laury)"
            string_val: "Behr, Mr. Karl Howell"
            string_val: "Chip, Mr. Chang"
            string_val: "Vande Velde, Mr. Johannes Joseph"
            string_val: "Fynney, Mr. Joseph J"
            string_val: "Tomlin, Mr. Ernest Portage"
            string_val: "Faunthorpe, Mrs. Lizzie (Elizabeth Anne Wilkinson)"
            string_val: "Bryhl, Mr. Kurt Arnold Gottfrid"
            string_val: "Moran, Mr. James"
            string_val: "Rice, Master. Eric"
            string_val: "Sivic, Mr. Husein"
            string_val: "Yrois, Miss. Henriette (\"Mrs Harbeck\")"
            string_val: "Henry, Miss. Delia"
            string_val: "McGovern, Miss. Mary"
            string_val: "Baclini, Mrs. Solomon (Latifa Qurban)"
            string_val: "Graham, Mrs. William Thompson (Edith Junkins)"
            string_val: "Dowdell, Miss. Elizabeth"
            string_val: "Baxter, Mr. Quigg Edmond"
            string_val: "Cacic, Mr. Luka"
            string_val: "Andersson, Miss. Ebba Iris Alfrida"
            string_val: "Madill, Miss. Georgette Alexandra"
            string_val: "Leitch, Miss. Jessie Wills"
            string_val: "Johnston, Miss. Catherine Helen \"Carrie\""
            string_val: "Kimball, Mr. Edwin Nelson Jr"
            string_val: "Van Impe, Miss. Catharina"
            string_val: "Ford, Miss. Doolina Margaret \"Daisy\""
            string_val: "Giles, Mr. Frederick Edward"
            string_val: "Risien, Mr. Samuel Beard"
            string_val: "Ringhini, Mr. Sante"
            string_val: "Ryan, Mr. Patrick"
            string_val: "Andersson, Mr. August Edvard (\"Wennerstrom\")"
            string_val: "Karaic, Mr. Milan"
            string_val: "Johnson, Miss. Eleanor Ileen"
            string_val: "Silvey, Mrs. William Baird (Alice Munger)"
            string_val: "Karlsson, Mr. Nils August"
            string_val: "Persson, Mr. Ernst Ulrik"
            string_val: "Baclini, Miss. Eugenie"
            string_val: "Somerton, Mr. Francis William"
            string_val: "Parkes, Mr. Francis \"Frank\""
            string_val: "Sunderland, Mr. Victor Francis"
            string_val: "Millet, Mr. Francis Davis"
            string_val: "Holm, Mr. John Fredrik Alexander"
            string_val: "Graham, Mr. George Edward"
            string_val: "O\'Sullivan, Miss. Bridget Mary"
            string_val: "Johansson, Mr. Karl Johan"
            string_val: "Williams-Lambert, Mr. Fletcher Fellows"
            string_val: "Glynn, Miss. Mary Agatha"
            string_val: "Ryerson, Miss. Susan Parker \"Suzette\""
            string_val: "Sage, Miss. Dorothy Edith \"Dolly\""
            string_val: "Navratil, Master. Edmond Roger"
            string_val: "Thomas, Master. Assad Alexander"
            string_val: "Bonnell, Miss. Elizabeth"
            string_val: "Lindahl, Miss. Agda Thorilda Viktoria"
            string_val: "Moran, Miss. Bertha"
            string_val: "Carter, Mrs. Ernest Courtenay (Lilian Hughes)"
            string_val: "Hunt, Mr. George Henry"
            string_val: "Morley, Mr. William"
            string_val: "Blackwell, Mr. Stephen Weart"
            string_val: "Dorking, Mr. Edward Arthur"
            string_val: "Beane, Mr. Edward"
            string_val: "Sage, Master. Thomas Henry"
            string_val: "Newell, Mr. Arthur Webster"
            string_val: "Wiseman, Mr. Phillippe"
            string_val: "Bazzani, Miss. Albina"
            string_val: "Hickman, Mr. Leonard Mark"
          }
        }
      }
    }
    node_def {
      name: "TensorSliceDataset/tensors/component_2"
      op: "Const"
      device: "/device:CPU:0"
      attr {
        key: "dtype"
        value {
          type: DT_INT64
        }
      }
      attr {
        key: "value"
        value {
          tensor {
            dtype: DT_INT64
            tensor_shape {
              dim {
                size: 625
              }
            }
            tensor_content: "…"
          }
        }
      }
    }
    node_def {
      name: "TensorSliceDataset/tensors/component_3"
      op: "Const"
      device: "/device:CPU:0"
      attr {
        key: "dtype"
        value {
          type: DT_INT64
        }
      }
      attr {
        key: "value"
        value {
          tensor {
            dtype: DT_INT64
            tensor_shape {
              dim {
                size: 625
              }
            }
            tensor_content: "…"
          }
        }
      }
    }
    node_def {
      name: "TensorSliceDataset/tensors/component_4"
      op: "Const"
      device: "/device:CPU:0"
      attr {
        key: "dtype"
        value {
          type: DT_INT64
        }
      }
      attr {
        key: "value"
        value {
          tensor {
            dtype: DT_INT64
            tensor_shape {
              dim {
                size: 625
              }
            }
            tensor_content: "…"
          }
        }
      }
    }
    node_def {
      name: "TensorSliceDataset"
      op: "TensorSliceDataset"
      input: "TensorSliceDataset/tensors/component_0:output:0"
      input: "TensorSliceDataset/tensors/component_1:output:0"
      input: "TensorSliceDataset/tensors/component_2:output:0"
      input: "TensorSliceDataset/tensors/component_3:output:0"
      input: "TensorSliceDataset/tensors/component_4:output:0"
      device: "/device:CPU:0"
      attr {
        key: "Toutput_types"
        value {
          list {
            type: DT_DOUBLE
            type: DT_STRING
            type: DT_INT64
            type: DT_INT64
            type: DT_INT64
          }
        }
      }
      attr {
        key: "output_shapes"
        value {
          list {
            shape {
            }
            shape {
            }
            shape {
            }
            shape {
            }
            shape {
            }
          }
        }
      }
    }
    node_def {
      name: "BatchDatasetV2/batch_size"
      op: "Const"
      device: "/device:CPU:0"
      attr {
        key: "dtype"
        value {
          type: DT_INT64
        }
      }
      attr {
        key: "value"
        value {
          tensor {
            dtype: DT_INT64
            tensor_shape {
            }
            int64_val: 50
          }
        }
      }
    }
    node_def {
      name: "BatchDatasetV2/drop_remainder"
      op: "Const"
      device: "/device:CPU:0"
      attr {
        key: "dtype"
        value {
          type: DT_BOOL
        }
      }
      attr {
        key: "value"
        value {
          tensor {
            dtype: DT_BOOL
            tensor_shape {
            }
            bool_val: false
          }
        }
      }
    }
    node_def {
      name: "BatchDatasetV2"
      op: "BatchDatasetV2"
      input: "TensorSliceDataset:handle:0"
      input: "BatchDatasetV2/batch_size:output:0"
      input: "BatchDatasetV2/drop_remainder:output:0"
      device: "/device:CPU:0"
      attr {
        key: "output_shapes"
        value {
          list {
            shape {
              dim {
                size: -1
              }
            }
            shape {
              dim {
                size: -1
              }
            }
            shape {
              dim {
                size: -1
              }
            }
            shape {
              dim {
                size: -1
              }
            }
            shape {
              dim {
                size: -1
              }
            }
          }
        }
      }
      attr {
        key: "output_types"
        value {
          list {
            type: DT_DOUBLE
            type: DT_STRING
            type: DT_INT64
            type: DT_INT64
            type: DT_INT64
          }
        }
      }
    }
    node_def {
      name: "RepeatDataset/count"
      op: "Const"
      device: "/device:CPU:0"
      attr {
        key: "dtype"
        value {
          type: DT_INT64
        }
      }
      attr {
        key: "value"
        value {
          tensor {
            dtype: DT_INT64
            tensor_shape {
            }
            int64_val: -1
          }
        }
      }
    }
    node_def {
      name: "RepeatDataset"
      op: "RepeatDataset"
      input: "BatchDatasetV2:handle:0"
      input: "RepeatDataset/count:output:0"
      device: "/device:CPU:0"
      attr {
        key: "output_shapes"
        value {
          list {
            shape {
              dim {
                size: -1
              }
            }
            shape {
              dim {
                size: -1
              }
            }
            shape {
              dim {
                size: -1
              }
            }
            shape {
              dim {
                size: -1
              }
            }
            shape {
              dim {
                size: -1
              }
            }
          }
        }
      }
      attr {
        key: "output_types"
        value {
          list {
            type: DT_DOUBLE
            type: DT_STRING
            type: DT_INT64
            type: DT_INT64
            type: DT_INT64
          }
        }
      }
    }
    node_def {
      name: "ShuffleDataset/buffer_size"
      op: "Const"
      device: "/device:CPU:0"
      attr {
        key: "dtype"
        value {
          type: DT_INT64
        }
      }
      attr {
        key: "value"
        value {
          tensor {
            dtype: DT_INT64
            tensor_shape {
            }
            int64_val: 10000
          }
        }
      }
    }
    node_def {
      name: "ShuffleDataset/seed"
      op: "Const"
      device: "/device:CPU:0"
      attr {
        key: "dtype"
        value {
          type: DT_INT64
        }
      }
      attr {
        key: "value"
        value {
          tensor {
            dtype: DT_INT64
            tensor_shape {
            }
            int64_val: 0
          }
        }
      }
    }
    node_def {
      name: "ShuffleDataset/seed2"
      op: "Const"
      device: "/device:CPU:0"
      attr {
        key: "dtype"
        value {
          type: DT_INT64
        }
      }
      attr {
        key: "value"
        value {
          tensor {
            dtype: DT_INT64
            tensor_shape {
            }
            int64_val: 0
          }
        }
      }
    }
    node_def {
      name: "ShuffleDataset"
      op: "ShuffleDataset"
      input: "RepeatDataset:handle:0"
      input: "ShuffleDataset/buffer_size:output:0"
      input: "ShuffleDataset/seed:output:0"
      input: "ShuffleDataset/seed2:output:0"
      device: "/device:CPU:0"
      attr {
        key: "output_shapes"
        value {
          list {
            shape {
              dim {
                size: -1
              }
            }
            shape {
              dim {
                size: -1
              }
            }
            shape {
              dim {
                size: -1
              }
            }
            shape {
              dim {
                size: -1
              }
            }
            shape {
              dim {
                size: -1
              }
            }
          }
        }
      }
      attr {
        key: "output_types"
        value {
          list {
            type: DT_DOUBLE
            type: DT_STRING
            type: DT_INT64
            type: DT_INT64
            type: DT_INT64
          }
        }
      }
      attr {
        key: "reshuffle_each_iteration"
        value {
          b: true
        }
      }
    }
    node_def {
      name: "OptimizeDataset"
      op: "OptimizeDataset"
      input: "ShuffleDataset:handle:0"
      input: "optimizations:output:0"
      device: "/device:CPU:0"
      attr {
        key: "output_shapes"
        value {
          list {
            shape {
              dim {
                size: -1
              }
            }
            shape {
              dim {
                size: -1
              }
            }
            shape {
              dim {
                size: -1
              }
            }
            shape {
              dim {
                size: -1
              }
            }
            shape {
              dim {
                size: -1
              }
            }
          }
        }
      }
      attr {
        key: "output_types"
        value {
          list {
            type: DT_DOUBLE
            type: DT_STRING
            type: DT_INT64
            type: DT_INT64
            type: DT_INT64
          }
        }
      }
    }
    node_def {
      name: "ModelDataset"
      op: "ModelDataset"
      input: "OptimizeDataset:handle:0"
      device: "/device:CPU:0"
      attr {
        key: "output_shapes"
        value {
          list {
            shape {
              dim {
                size: -1
              }
            }
            shape {
              dim {
                size: -1
              }
            }
            shape {
              dim {
                size: -1
              }
            }
            shape {
              dim {
                size: -1
              }
            }
            shape {
              dim {
                size: -1
              }
            }
          }
        }
      }
      attr {
        key: "output_types"
        value {
          list {
            type: DT_DOUBLE
            type: DT_STRING
            type: DT_INT64
            type: DT_INT64
            type: DT_INT64
          }
        }
      }
    }
    ret {
      key: "modeldataset"
      value: "ModelDataset:handle:0"
    }
  }
}
versions {
  producer: 27
  min_consumer: 12
}
